model/lenet5.pt (torch, 249735 bytes, 10 tensors)

conv1.weight f4 [6, 1, 5, 5]
00000000: e7d5 89ba 8a34 19be 858c f9bd 4caf d3be
00000010: 77c3 9ebe d547 913e 7ca5 043e e39e 96be
00000020: 6d72 eebe 43f8 42be 1120 763e 5f2b a1bd
00000030: 8929 49bd ee9f 0bbe d0fe 99bc d850 813e
00000040: 659b c6bc 1ca4 363e 2653 febd 60fd debc
00000050: 74bc 193e 05fd a93e acbe 8d3e bed1 a53e
00000060: e182 653c d0d2 113e 6b0e 853e 3412 f5bb
00000070: 3678 06be 053f c3bc fff9 5d3d 6554 a5bd
00000080: f1a8 ad3d 5536 8dbe e21a 4ebe db51 c83d
00000090: 0495 afbd a929 cbbe ae53 90be 15af 593c
000000a0: a889 0fbe e27a 47be a52e 69be 162b d4bd
000000b0: 8d80 04be cf19 413e 8c50 66be ae4e a3be
000000c0: 9fe0 5bbe f09c c8bd 4958 d4bc 7b84 49bd
000000d0: b379 683c 2745 9e3b 70ac 213e e9d3 72be
000000e0: 5792 adbe 76b2 1ebe b285 54be 2cf3 7dbe
000000f0: e4ec d6bd 4fd3 b8be aab6 50be 468b b3be
00000100: 87b1 7f3d cf45 063e 90aa 44be 134b 0fbe
00000110: f2c9 233e 24b2 5bbc e8d9 b13d e1e8 10bd
00000120: 817a 353e dcc6 643e f5f7 953e 3706 413e
00000130: 73f4 a8bd 8b1e 673c 9f39 2f3c 19db 95be
00000140: 49b2 073d 447b e9bd d7fb e4bd e95a ccbe
00000150: 5ee9 dbbe a878 ca3d 3b43 303e 96d9 23be
00000160: 7cd3 bdbe f8a9 86bd 04c3 713e 8857 e9bd
00000170: 497c 4bbe 116d 77be b276 d5bd 37ac 4d3e
00000180: 527b b1bd 0588 f0bc 1178 36be b606 0c3d
00000190: 0317 d2bd 084e 863e 5819 233e ba44 b83d
000001a0: 8d4d 5dbd a7c0 1bbe 4d84 c33d 5f7b fabb
000001b0: 0159 bcbd fe05 75be 0bee 31be 497e 85be
000001c0: d4e2 0bbe d0e1 05be ab2d 18be 3b1d babe
000001d0: 2a8c 8abe d579 a5be 109b f3bb ff3f e8bc
000001e0: 81f5 e7bd f998 89be 72ec d7bc 7a02 26be
000001f0: febf 163e 176d c23e 4f43 913e 61a2 3e3e
00000200: 66a5 943e 9657 c33d bc83 973c b1c6 813e
00000210: f89f f63d 480b 9e3d 5658 9d3d 2bb0 043e
00000220: 813a 243e dd81 6cbe 4ee2 adbe 194c 3cbe
00000230: 07d4 e0bc 15cf babe 5b6f 7cbe 5682 4fbe
00000240: ce28 afbd 0f68 f63d bd49 71be 199b 56be
00000250: fc27 c5be fd67 a6be
-0.0010516018 -0.14961448 -0.12185005 -0.41344678 -0.31008503 0.28375116 0.12953752 -0.29418096
-0.46571675 -0.19040017 0.2403567 -0.078696005 -0.049111877 -0.13635227 -0.018798262 0.2525699
-0.02424402 0.1783604 -0.12418203 -0.027220428 0.15013295 0.3320085 0.27684534 0.32386583
0.014008255 0.14240575 0.25987563 -0.0074789766 -0.13131794 -0.023833761 0.054193493 -0.080727376
0.08479489 -0.27580515 -0.20127442 0.09781238 -0.08573344 -0.39680222 -0.28188843 0.013286372
-0.14017355 -0.1948047 -0.227717 -0.103597805 -0.12939663 0.18857501 -0.22491664 -0.31895965
-0.21472405 -0.097955585 -0.025921004 -0.04919861 0.014189172 0.004830021 0.15788436 -0.2371365
-0.3390071 -0.15497765 -0.20754126 -0.24799794 -0.10494402 -0.36098716 -0.20382181 -0.35067195
0.062425163 0.13112567 -0.1920569 -0.13993482 0.15995005 -0.013409171 0.086841404 -0.03537834
0.17722513 0.22341484 0.2929074 0.18850027 -0.0824975 0.014106403 0.01069489 -0.2926872
0.03312901 -0.11400464 -0.11180847 -0.3991311 -0.42951483 0.098862946 0.17213146 -0.16000971
-0.37075412 -0.06575388 0.23609549 -0.113936484 -0.1987163 -0.241627 -0.1042303 0.20085226
-0.086660996 -0.029361734 -0.17819239 0.034186088 -0.102582954 0.26231408 0.15927637 0.089974836
-0.054029036 -0.1521021 0.09546719 -0.0076441015 -0.09196664 -0.23928067 -0.17375962 -0.2607291
-0.13660747 -0.13074422 -0.14861171 -0.36350426 -0.27060062 -0.32319513 -0.0074342564 -0.028350828
-0.11326123 -0.2687452 -0.026357863 -0.16211882 0.14721677 0.37973854 0.28371665 0.1861663
0.2903244 0.0953819 0.018495433 0.25346902 0.1204223 0.077169955 0.07682864 0.12957828
0.16037942 -0.23096414 -0.3396172 -0.18388404 -0.027444853 -0.36486116 -0.24651854 -0.20264563
-0.08552705 0.12031566 -0.23563285 -0.20957603 -0.38507068 -0.32501212

conv1.bias f4 [6]
00000000: f4d0 0abe 99ee 8b3d ac09 033d 645f 853d
00000010: 33a8 a73d 9f3e 283e
-0.13556272 0.06832618 0.031991646 0.06512335 0.08186378 0.16430138

conv2.weight f4 [16, 6, 5, 5]
00000000: db95 b0bd 01ab 48be 6cf3 87bd f7a6 74bd
00000010: 5e5f 7cbd 72a4 43bd 8e79 b6bc 225b c3bd
00000020: f8d7 19be c74a 97bd b303 50bc d5da 003e
00000030: 3ff5 a63d 2dde 053e bc84 91bc f2c2 63bd
00000040: 9d02 0abe 189c 45bb 6ba6 b43d bbbc 6b3e
00000050: 8505 79be f1d3 93be e31e 8bbe 185f 34be
00000060: 832a fa3d 079f 56bd b49b c1bc edf3 4a3d
00000070: 9d06 4a3d 51af 253e b721 5f3d 94d7 bd3b
00000080: 38da 463d e447 223e 2dca 3a3e 05b9 033d
00000090: 968e d4bd 6350 39bd d465 66bd d21c 7c3d
000000a0: df50 1cbe 1efd 41bd 2138 c2bd 240d 79bd
000000b0: 9e0f 12bb 10ae b1bd 14c9 30bd 031e a7bd
000000c0: f3a2 19be 20be 9cbd ca1d 983c d1a5 253d
000000d0: 1a1a 9ebc 37ef 0b3d 16df 933d f207 6dbd
000000e0: 2972 a03d ec80 193c 81d9 6c3d 9824 0c3d
000000f0: 515f f8bb d904 ef3d 280f 1a3c 5e2a 4d3d
00000100: 86f8 a1bc 536b 82bd 69a8 65be aacc 3ebe
00000110: fd4c 13be 9f97 00bd 2154 37be eb79 2abe
00000120: cbaa 6abe 8715 edbd 57a3 f9bd 4f0d c43d
00000130: 0474 c43c 9465 2dba a9f8 d33d aed5 e43d
00000140: 5d99 9d3d 36d2 bb3d d767 033e cb9e 263e
00000150: 17c0 e43c 6359 a33c d26a a93c ffab 333d
00000160: ef21 b03d eeac ca3d b9bd bebd ca85 babc
00000170: daa5 2dbd 0c69 d33c 69e2 d33c 10c8 e1bd
00000180: 935d f7bd fca5 ddbd 0d96 abbd 3500 3b3d
00000190: 4504 32bc 4979 df3d a018 0e3e aef7 e23d
000001a0: 2638 803c a04f af3d c64d b83d 8324 093e
000001b0: cf61 093d 4e02 4e3d 7e46 803b 1177 9b3c
000001c0: 4e38 2fbb b899 f7bd 1edf 623c 0886 0cbe
000001d0: 5fae 53be 6fc5 65be 8cc2 69be 2994 09be
000001e0: 0599 15be b714 01be ee0d e6bd ed36 07be
000001f0: d6cb a5bd 0b18 0b3e 90a8 033d ca31 813d
00000200: aad1 433e 0b90 6e3e 54a8 113e 23ab d43c
00000210: 3e2a 273e 2275 2b3e 8583 4b3e 9fae c7bd
00000220: 161d 48be 9768 92be b102 a2bd adbf 983d
00000230: c4e3 a3be cfec 47be b3cb 9bbe 7812 62be
00000240: 03c2 a0b9 af5e c73d 1b13 253e 2e67 7a3d
00000250: c249 15bb d932 cfbd f28f ab3d 2fc0 d23d
00000260: 690c a53d 8d83 743d c601 3dbd b354 2ebd
00000270: b9b0 b2bd 6063 b6bd 715a 223d 078d e6bd
00000280: 84d0 03be 0501 8fbe a845 48be 8b4e 10bc
00000290: 86e2 0f3d 3c51 9c3b cdd8 fabd a5a7 3ebd
000002a0: 6982 2a3e 5565 c13d 405b ea3d dfd2 f8bb
000002b0: bda5 bd3d 06d6 203d 877c d0bd 6c8d efbc
000002c0: 75ac dfbd fa16 d7bd 275c bbbd 2ded afbd
000002d0: 4ebd 5ebd 2be2 19be 4b01 46bd e377 1cbe
000002e0: d5e8 fbbc aee3 24bd b47d 123d e366 3bbd
000002f0: afad 5ebd b189 cf3d cdac bd3d 189b 553d
00000300: 4d47 ed3c 1d38 283c 0522 1ebb 50f9 0c3e
00000310: ba64 013e 10bf 6cbc aa30 b83d 3787 d53d
00000320: fb1c bc3b 4c8d 0d3e 057c bb3d 6a86 593c
00000330: de1e 10be 198f d13c 3d95 e7bd 4398 9ebd
00000340: ae3d fcbd e87b 00bd cee6 283c f7ca 0ebe
00000350: c154 35be 7ca3 02be 3425 233d 5851 20bc
00000360: f11f ceb9 b455 6bbc cf6a 47bd d84e ae3d
00000370: ca13 db3c 2b0c af3d c304 92bc f974 043d
00000380: c265 723d db7c 023c 3f8e 24bd 179b d13d
00000390: f44c b5bd b6ca 19bd de16 a6bd 7ced 21be
000003a0: 3e81 d6bd e229 5bbd abcf 303d b2e4 02be
000003b0: 4add e4bd 206b fabd d1ea 4dbc 529d ee3c
000003c0: 1e6b 813c 3d81 783d 1185 42bd 1bfc f13d
000003d0: 7360 da3d 227b 803c 7fe8 d63d a183 f53d
000003e0: 2bfc 60bc 96f2 1ebc 8edd cf3d ab60 8abd
000003f0: 33f8 1bbb 0d83 2cbe 7086 ccbd 513f 2f3d
-0.08622333 -0.19596483 -0.06638226 -0.059729543 -0.061614387 -0.04776425 -0.022274759 -0.095388666
-0.15023792 -0.073873095 -0.012696194 0.12583478 0.08152246 0.13073035 -0.017763488 -0.055605836
-0.1347756 -0.0030152854 0.08820804 0.23021214 -0.24318512 -0.28872636 -0.27172002 -0.176144
0.1221514 -0.052397754 -0.023633815 0.049549032 0.049322713 0.16180159 0.054475512 0.005793521
0.048547953 0.15847737 0.18241186 0.03215887 -0.103787586 -0.04524268 -0.056249455 0.061550923
-0.15265225 -0.047360532 -0.09483362 -0.060803548 -0.002228714 -0.08675778 -0.043160513 -0.08160021
-0.15003566 -0.07653451 0.018568892 0.040441338 -0.019299556 0.03416368 0.07220285 -0.057868905
0.07834274 0.009369116 0.057824615 0.034214586 -0.007579722 0.116708465 0.009403028 0.050089233
-0.019771826 -0.06368127 -0.22427525 -0.1863276 -0.14384837 -0.031394597 -0.17903186 -0.1664807
-0.22916715 -0.11576372 -0.12189358 0.09572851 0.023981102 -0.00066145626 0.103501625 0.11173569
0.07695267 0.09170954 0.1283258 0.16271512 0.027923627 0.019940084 0.020680819 0.0438652
0.08600222 0.09896265 -0.093135305 -0.022768874 -0.042394497 0.025806926 0.025864797 -0.11024487
-0.12078395 -0.10822675 -0.08378229 0.045654494 -0.010865276 0.10911805 0.13876581 0.110823974
0.015651774 0.08560109 0.08999209 0.13392834 0.033540543 0.050295167 0.0039146533 0.018977674
-0.002673644 -0.120898664 0.013847141 -0.13723004 -0.20671986 -0.22438596 -0.2282812 -0.13435425
-0.14609154 -0.12605558 -0.112331256 -0.13204546 -0.08095519 0.1358339 0.032143176 0.06308325
0.19122949 0.23297136 0.14224368 0.02596051 0.16324708 0.16743901 0.1987439 -0.09750103
-0.19542345 -0.2859542 -0.079106696 0.07458434 -0.3200971 -0.19523929 -0.30428848 -0.22077358
-0.00030662128 0.09734856 0.1612057 0.061133556 -0.0022779559 -0.1011712 0.08377065 0.10290562
0.08059008 0.05969577 -0.04614427 -0.042561244 -0.087251134 -0.08905673 0.039637033 -0.112573676
-0.12872511 -0.27930465 -0.19557822 -0.008807789 0.03512814 0.004770426 -0.12248383 -0.046546597
0.1665131 0.09443156 0.11443186 -0.007593497 0.09260128 0.03926661 -0.10180002 -0.02924224
-0.109215654 -0.10502429 -0.09148436 -0.085901596 -0.054379754 -0.15027682 -0.048341077 -0.15280108
-0.030750671 -0.040256195 0.03576441 -0.045752417 -0.054364856 0.101336844 0.09261475 0.052149862
0.028964663 0.010267285 -0.0024129164 0.1376698 0.1263608 -0.01444985 0.08993657 0.10426181
0.0057407594 0.13823432 0.09154514 0.013276676 -0.14074275 0.02558093 -0.11307762 -0.07743885
-0.12316452 -0.031368166 0.010308934 -0.13944612 -0.17708112 -0.12757677 0.0398304 -0.009785019
-0.0003931518 -0.014363695 -0.048685845 0.08511132 0.026742835 0.08547243 -0.017824536 0.032338116
0.059179075 0.007964338 -0.04017472 0.10234659 -0.08852568 -0.037546836 -0.0810983 -0.1581325
-0.1047387 -0.05350674 0.043166798 -0.12782553 -0.1117502 -0.12227464 -0.012568192 0.02912775
0.015798148 0.060670126 -0.047490183 0.118156634 0.106629275 0.015683714 0.10493564 0.11987997
-0.0137319965 -0.009701392 0.1014968 -0.06756719 -0.0023799061 -0.16846867 -0.099865794 0.042784993

conv2.bias f4 [16]
00000000: 25ae 133e ce17 ed3d 48bf eebc 030d 093e
00000010: 8744 21bd 873f e7bd 7ca8 b43d a0c3 033e
00000020: 1a6b adbd 9009 98bd cf8e 283d 196e 3ebc
00000030: 4f75 05be 040e c13d 5004 53bd d496 263d
0.144219 0.11576806 -0.029143944 0.1338387 -0.039371993 -0.11291414 0.08821198 0.12867594
-0.084676936 -0.07423699 0.041151818 -0.011622929 -0.13033031 0.094265014 -0.051517785 0.040671185

conv3.weight f4 [120, 16, 5, 5]
00000000: 0a03 8dbd 4d65 2dbd 7831 b03c 5b5b c13d
00000010: 470b 27be c2e0 023d 9a55 10bc 7cb5 803b
00000020: b944 e93c f97b 55bd f3d6 51bd 0d5f 67bc
00000030: eb91 643d 4544 79bb 0922 903d e2aa 1abe
00000040: f0d6 d7bc cec3 453d e403 a9bd 237f aabc
00000050: 7dab 9c3d 77c5 02bc c89f 48bd 7e7a e0bc
00000060: 8eff 4b3d 1204 6f3d 147a 8f3b b21c 24bd
00000070: a48e 893c b8f7 9ebb 601e c7bd 1aa4 31be
00000080: 2c59 cf3d ed05 48bd 396b 5ebe 1ed7 413b
00000090: d4de dc3b 705b 933d b5bb 19be 2f09 0ebe
000000a0: 5a86 bd3d 4473 893d 4c27 243d a95f b8bd
000000b0: d97a a93b 5e02 8dbd 23ed 69bd d028 61bd
000000c0: 62a4 bfbc bf26 7dba 1f8e 85bd 31e4 a63b
000000d0: fcbe b63d febb 293d d1ff 10be fa6c 283d
000000e0: 1322 d6bc 9a50 c43d 7b79 a8bc 2fa6 c9bd
000000f0: d281 ff3c 50ba 2c3d 8caf 7e3d 0405 4b3d
00000100: 05a4 163e b352 aabd 73d9 a93c c5af febc
00000110: 10e7 b8bd 7e72 d8bc f956 73bd 8d12 5ebd
00000120: d5af 853d 9a44 a3bb 85ce a93d 5ef8 053d
00000130: ed07 b6bd 084f 45bd b151 d33d af09 72bc
00000140: 4ebf 0abe 8260 10bd e785 2d3d aac8 9abc
00000150: cc5a 92be c770 1fbd f3ff 413d 1e41 e5bc
00000160: b0cf e4bd eff2 4b3d 73ac e83d 5883 7c3d
00000170: d1b7 ddbc b00d d33b 6b08 253d 5426 053c
00000180: 5f61 173c c8b3 fa3c 3ca7 463d 7d02 a0bc
00000190: b805 debc f37a a73c 2981 0b3e 4d0e 263e
000001a0: 0172 893e da71 85bd 9ebd 9c3c 0487 0a3d
000001b0: 1fc8 0b3e 7923 513e 4cb9 4f3d abeb 3e3e
000001c0: 5eb0 ad3d 4496 093e 5bb3 3e3c c6dd 303e
000001d0: 8a24 323e 001c 913d 4f7a 683d 15fb abbd
000001e0: 2754 5e3d 6021 403c 1f40 98bc 4b52 47bd
000001f0: 92f0 87bd 12ca 023e 6d20 e4bc 8890 b4bd
00000200: 32c5 bfbd cef2 1fbc 8721 bdbd c151 09be
00000210: 6181 e9bc 6731 02bc 95ad e2bd 32d2 cabc
00000220: d4d0 b93b f70f 6a3d fb92 66bd d09e 843d
00000230: e553 f33d 33a7 553e 6286 fd3d d9ac 6c3d
00000240: 359f 383d cef3 d3bc 3fa4 41bc fa94 82bc
00000250: e91c 58bd a5ae 3a3c 4126 d83c 7eaf 13be
00000260: 3678 53bd 2859 b3bd 7709 78be 011f 5cbd
00000270: c00c b0bd 05ee 9a3c 81bd 28be 2b3d 07be
00000280: 25fa a43b 2d10 a5bd fee9 f93c 6513 31be
00000290: 8f2e 983d 8a91 153c 5403 debd e442 57bc
000002a0: 15e7 883d adde f73c 605a 8ebd d4e4 ef3c
000002b0: 0351 aabd 1d9c df3c eaef 6a3d 34f8 6e3d
000002c0: b269 d83d 2e5e 0b3e 4340 d7bd 7e1b 8cbc
000002d0: 2ce1 62bd 577d febc 2da8 30bb 4e22 e9bd
000002e0: cf70 393d 2006 f63c 0083 0f3d e836 e9bc
000002f0: 25b0 a9bd 1ccf 2bbe 23a3 45bd d612 a03b
00000300: 035c dabc a622 1f3d ee5c 9bbd 109b 8e3d
00000310: 4775 683c a926 26bd 1f23 ee36 3bbb 573d
00000320: 7e2f 2bbd 1cad 92bd 1f33 743c 5a12 183d
00000330: 8b70 f9bd 90de 723d 9b70 823c fe72 01be
00000340: 3c5f d73c c0c7 363d 1797 b03c a0f4 833d
00000350: aee9 4abd 57d8 f33d e534 c63d 2ae8 37be
00000360: b272 01bd 866a ac3d 7e20 d4bc 4102 a0bc
00000370: 2b0c c93c 0922 9d3c d5ba a33d 4e44 e53d
00000380: 25ca babb 0e88 d7bd 9b2b 133d 7788 7f3c
00000390: c678 3f3c 0405 583d 4ebd 1a3d bbf5 173e
000003a0: 4c0c 453c 0bb2 683d 5c81 633e 8773 8bbc
000003b0: 5918 9c3c 5b61 84bb 3fee 053e 0ecf e63d
000003c0: 798d 18bd 146a 8c3c 8a53 993c 0831 e83c
000003d0: 85c3 9d3c 3f44 003e ef91 c03d 3a1d 88ba
000003e0: 0540 94bc 4d3c 83bc bd81 e43d 8139 c33d
000003f0: 9b6a 8abd 03fb 1c3e 09b6 303e b1d8 613c
-0.06885345 -0.042332936 0.021507964 0.09441253 -0.16312896 0.031952627 -0.0088094715 0.0039278846
0.028475152 -0.052120183 -0.051230382 -0.014121783 0.05580322 -0.0038035077 0.07037742 -0.15104249
-0.026347607 0.048282437 -0.08252695 -0.020812577 0.07649896 -0.00798165 -0.048980504 -0.027402159
0.049804263 0.05835349 0.0043785665 -0.04006643 0.01679165 -0.0048513077 -0.097225904 -0.17347756
0.1012443 -0.048833776 -0.2172059 0.0029577683 0.0067404304 0.07195175 -0.15013011 -0.13870691
0.09254141 0.06711438 0.04007654 -0.09002621 0.0051721153 -0.06885217 -0.057110917 -0.054970562
-0.023393814 -0.00096569577 -0.06521248 0.0050931205 0.08923146 0.04143905 -0.14160086 0.041119553
-0.026139295 0.09585686 -0.020565739 -0.0984615 0.031189833 0.04216987 0.062179133 0.04956533
0.14711006 -0.08316555 0.02073357 -0.031089673 -0.09028447 -0.026421782 -0.059409115 -0.05421691
0.06527678 -0.004982543 0.082913436 0.032707565 -0.088882305 -0.048171073 0.10318316 -0.014772817
-0.1354954 -0.035248287 0.042364027 -0.018894512 -0.28584898 -0.038925912 0.047363233 -0.027985152
-0.11172426 0.049792226 0.11361017 0.061648697 -0.02706519 0.0064408407 0.04029123 0.008126814
0.009239524 0.030603305 0.04849933 -0.019532437 -0.027102336 0.020444369 0.1362349 0.16216393
0.2684479 -0.06515856 0.019133385 0.033820167 0.13650559 0.20423688 0.050713822 0.18644588
0.08480905 0.13436228 0.011639441 0.172721 0.17396751 0.07085419 0.056757268 -0.083974995
0.054279473 0.011726707 -0.018585263 -0.048662465 -0.06637682 0.12772396 -0.027847493 -0.0881663
-0.09363784 -0.009762479 -0.092349105 -0.13410093 -0.028504075 -0.007946349 -0.110682644 -0.024758432
0.005670646 0.05714413 -0.056292515 0.064756036 0.11881236 0.20864563 0.12379147 0.057782028
0.045073707 -0.025873091 -0.0118189445 -0.015940178 -0.052761946 0.011394178 0.026385428 -0.14422414
-0.051628314 -0.087572396 -0.2422236 -0.053740505 -0.08596182 0.018912325 -0.1647854 -0.13206927
0.0050347024 -0.08059726 0.030507084 -0.17292555 0.07430755 0.0091289375 -0.108404785 -0.013138507
0.066847004 0.030257547 -0.069508314 0.029283918 -0.08316233 0.02729612 0.057357706 0.058342174
0.10567035 0.13610145 -0.10510304 -0.017102953 -0.055390522 -0.031065626 -0.002695571 -0.11383496
0.0452736 0.030032218 0.03503704 -0.028468564 -0.0828555 -0.16778225 -0.048251282 0.004885058
-0.026655203 0.038851403 -0.07586084 0.069631696 0.014188117 -0.040564213 7.0970414e-06 0.05266879
-0.04179334 -0.07161924 0.014904766 0.037126876 -0.12179669 0.059294283 0.015922835 -0.12641522
0.026290528 0.04462409 0.02155642 0.06443143 -0.04953926 0.11906498 0.096780576 -0.17959657
-0.031603523 0.08418755 -0.0258944 -0.019532325 0.024541935 0.019181268 0.0799462 0.11194669
-0.005700367 -0.10523997 0.035930257 0.015596501 0.0116865095 0.05273916 0.03777819 0.14839832
0.012026858 0.05681042 0.22217315 -0.017022861 0.019054579 -0.004039926 0.13079165 0.11269961
-0.037244294 0.017140426 0.018716592 0.028343692 0.01925827 0.12526034 0.094028346 -0.0010384687
-0.018096933 -0.016019965 0.11157558 0.095324524 -0.06758615 0.15330128 0.17256941 0.013784573

conv3.bias f4 [120]
00000000: be71 85bd 9106 57bd 7aff af3a d6db b53c
00000010: 59ce debc 66a5 e43b 2240 0bbb e704 fc3d
00000020: fa27 27bd 54d4 733c 859a 89bd 01ed a43a
00000030: fd3f b73b a0ed c83c 142a 23bd 680d 87bd
00000040: 0ca1 c33c ab79 083d 3992 87bc 22e4 e93c
00000050: 1c9a 3dbb e27a ad3c 9f6e d5b9 d9d8 91bc
00000060: 7dd1 abbc 6b7e a63c 83f3 e73c d68f 11bd
00000070: c2fa 083d d01e 10bd 8c0f a03c 3d21 7e3c
00000080: f913 b03c ecb0 e5bd 06b0 2dbd 0f64 4a3d
00000090: d042 9a3c 89e2 2b3c c65f 97bc 01b7 1abd
000000a0: ad49 1f3b 0c7e d03c 5f46 97bc 1780 cc3c
000000b0: 86bb c2bc 3e71 1e3c 8ee7 d63c 983f 943d
000000c0: cb9b 2bbc c44b b03d 5a40 ac3d 56d0 453c
000000d0: 7569 c33c e69a febc 16d4 94bd b718 55bd
000000e0: 3444 e9bb 1c94 ad3c 34fd c73d 1957 563d
000000f0: 6ef7 1bbd 4f00 80bd ab4d d3bd 4d35 a93d
00000100: 0256 9cbc aa75 66bd edd0 1dbd 15e5 c6bc
00000110: 170f c63b 9f92 cd3d f938 34bd 6892 9c3d
00000120: f6fc 923c 1d3a 39bb 637a 75bc e494 43bc
00000130: 9218 dabb 3baa c2bd 1795 f1bc c524 8cbb
00000140: 0f19 10ba 8a58 8abd 85bc 173d fd99 c6bc
00000150: 9b8f f93d 7744 21bc 7670 bcbd 7ec0 c0bd
00000160: badb 73bd aede 7b3d 2377 2e3d ad13 babd
00000170: cd38 cb3c f176 97bd 0f47 36bd e8e5 e3bd
00000180: 0bcf 7dbd b1f7 6b3c eea7 c6bd 2200 c9bc
00000190: 268f 863c 995f 2c3d f38f 43bc fb08 2fbc
000001a0: 02f2 c2bc 25ed bcbc 7703 0bbd 947c c0bd
000001b0: 05b9 9cbc 0410 333d 0385 a13d 6ee8 b23d
000001c0: 769e 31bd e425 55bd e05c c8bd 1ce9 fd3c
000001d0: d8bf d13c 04d6 153d 6b20 d6bd bca8 db3c
-0.06515835 -0.052496497 0.0013427578 0.022199553 -0.027198004 0.006977725 -0.0021247943 0.123056225
-0.04080961 0.014882166 -0.067189254 0.001258284 0.005592345 0.02452737 -0.03983505 -0.06594354
0.023880504 0.033319157 -0.016549217 0.028551165 -0.0028930968 0.02117676 -0.00040708945 -0.017803596
-0.020973915 0.020323953 0.028314358 -0.035537563 0.033442266 -0.035185635 0.019538663 0.015510854
0.021493899 -0.11215386 -0.042404197 0.04941183 0.018830687 0.010491022 -0.018478286 -0.037772182
0.0024305389 0.025450729 -0.018466173 0.024963422 -0.023771059 0.009670554 0.02623346 0.07238692
-0.010474156 0.08608201 0.084107116 0.012073597 0.023853997 -0.03107972 -0.07267015 -0.052025523
-0.007118726 0.021188788 0.097650915 0.052329157 -0.038077764 -0.06250059 -0.10317548 0.082621194
-0.01908398 -0.056264557 -0.038529325 -0.024279157 0.0060442793 0.100377314 -0.043999646 0.07645112
0.017942887 -0.0028263398 -0.014982793 -0.011937354 -0.006655761 -0.09505125 -0.029490037 -0.004276844
-0.0005496898 -0.06755169 0.03704502 -0.02424335 0.12185594 -0.009842983 -0.09201138 -0.09411715
-0.05953572 0.06149166 0.042594086 -0.09085784 0.024807358 -0.07395733 -0.04450136 -0.111278355
-0.06196503 0.014402316 -0.09699999 -0.024536196 0.01642568 0.042083357 -0.011936176 -0.010683293
-0.023797039 -0.023062298 -0.03393885 -0.093987614 -0.019131193 0.043716446 0.07886698 0.08735739
-0.04336401 -0.05203809 -0.097833395 0.030994944 0.025604174 0.036581054 -0.10455402 0.026813857

fc1.weight f4 [84, 120]
00000000: dda9 d3bb e70d 04be c6c7 14be a65f 803d
00000010: d45a cbbd 180c 203c a4ef 873d 210d 513d
00000020: da61 1d3e 4def 8ebd 3ec9 af3d ab5c 5dbc
00000030: 5f7f 5bbe ed33 a1bd 273c abbd 8e79 43bb
00000040: 46d5 b83d 1542 09be 518b 7abd bada 9b3d
00000050: 5da5 9abd 9c67 173e f669 183e f110 dfbd
00000060: 12df 293e 7410 b4bd 509b 3fbe 0d2e bd3d
00000070: d715 bc3d afd9 93bd a5a7 ffbd f83c 373e
00000080: 83b6 dcbc 2ba6 d6bd df68 91bd 83d3 32bd
00000090: 30de fd3d 1cfe 81bc 059a 14bb 8a2a 20bd
000000a0: 65a9 f7bd 4279 093e f0b2 78bd 6c24 22be
000000b0: d6ec 4f3e 4682 b5bd c924 8fbd 28fd 4ebd
000000c0: 0c78 4b3d c8cf 45bd 195f 393c 3617 99bb
000000d0: 2fb3 b7bd 8eb2 8b3b cca1 a3bd f75f 26bd
000000e0: dc6b 0ebe b7df ebbd d025 c43d 28bb f13d
000000f0: 6b25 33ba 969e 863e c7bb 263d d402 e93d
00000100: a2aa 04bd 551f d2bc 8bf4 c63c 8a9e bd3d
00000110: 905f 053d 8123 7abd 81c1 51bb ab7b 86bc
00000120: bff7 0dbc b023 4fbd 1db1 2ebd dc84 21bb
00000130: 007f b23d 30db e33d 154d fa3d 51d4 c93d
00000140: c51f dc3d 06aa 2a3b 7cc5 dcbd eeed 0ebe
00000150: 46f4 22be 7418 cd3c e7d0 54be c9d7 a73d
00000160: 423c 34bc e167 913d b24a 643d 63ba 69be
00000170: d927 893d 76a6 683c c9b6 7cbb c121 a03b
00000180: 3ecb fd3c 318b ad3d ec81 1abd a5a2 293b
00000190: 0c38 c33d 3b42 f3bd b576 70be b45b b83d
000001a0: 71ef ed3c 6c5a 5a3e 503a e63c 40a8 11bd
000001b0: 6eac fb3d 7d78 083e 04d9 a4be 5fca 2ebd
000001c0: d36d fb3d c345 34be 1889 37be 8b6d 273c
000001d0: e33c f53c 08fa 0bbe 0336 1fbe 00f9 25be
000001e0: 6941 e33c 45de c73d 0449 5e3e c82a 8cbd
000001f0: 595c 71bc 2012 c83d 87d3 acbb d153 89bd
00000200: 04a9 933c fc1b b83d 3b96 3a3d e5e7 023e
00000210: 6fc8 493e b419 843c 7f40 603d 9e70 c1bd
00000220: 7a43 103d 2967 e33d 4c71 90bd 6470 4d3e
00000230: ace9 233e 07a1 253e 7e88 023d 3010 2a3b
00000240: 090f 0bbe b089 033e 011b 80bd b738 adbd
00000250: 4dbc c2bd dce3 aabc c535 a6bd 63d5 54bd
00000260: 55ae 1fbe 6a52 893e 9fd7 afba 48d6 b9bd
00000270: cb08 f83d 0c84 4a3e b840 acbd 2186 393d
00000280: e3dc b03d 2403 453b 64ec 77be b07c ddbd
00000290: f0c6 0cbe 7f7e cf3b 5015 c83c ffc5 7dbc
000002a0: b6b5 22bd c7a8 ad3c 3310 d3bd eba6 5f3d
000002b0: a7b5 8cbd 8a79 483c dc88 b23d a0d5 343d
000002c0: 60cf 203d 3ded d0bc 6cfd 543d 9649 573d
000002d0: 97e4 eb3d 8608 adbd fd91 773e 6d12 d53d
000002e0: 1485 573c e02b b13c 5e05 0b3e 1285 a9bb
000002f0: 4611 d2bb 0e06 efbc cfa4 f73d f1d9 013d
00000300: 9ffa 4d3e 93be 46be 517a bb3c 7ea6 3fbe
00000310: f896 a83d cd53 5dbe cffc ce3d e739 013e
00000320: 0ea2 673d c8c2 0cbe 2fa5 5d3c aa91 573d
00000330: 2f03 b83d dbe4 523d c774 f63d 0129 6a3d
00000340: aaf7 c73d 20fa 66bd 4ea4 3abe 0b40 54be
00000350: 8956 ce3d ae58 c5bd 593d 25bd afc9 f13d
00000360: 23c7 71be a2c6 49be 3a9a 963e e70d 02be
00000370: 4876 283e 3615 933b 7ba9 81bc b419 85bc
00000380: 037d f33c c7ef ed3d c7d6 223e bd9f ef3d
00000390: 7767 683e d4ab 13be 3232 15bd 3124 0e3d
000003a0: 142a c83d 9012 02bd 8577 d63d f3fa 22be
000003b0: 5114 0e3d 92af 273d 3bcb 9ebb 9eb9 f4bd
000003c0: b772 75bd c7e3 3c3d 201a 9e3e 1378 a03d
000003d0: ea0f 433d 1375 4dbc 9892 493e c336 aabd
000003e0: 9e85 123e c687 13be 9af3 02bd 657e 90bd
000003f0: 4d19 6d3a 28be 86bc c26c 84bd e3ef 8bbe
-0.0064594583 -0.12895928 -0.14529333 0.062682435 -0.099294335 0.009768508 0.06637505 0.05103791
0.15369359 -0.06979237 0.08583306 -0.013510863 -0.21435307 -0.07871232 -0.083610825 -0.002982709
0.09025054 -0.13404115 -0.06116802 0.07610078 -0.07551072 0.14785618 0.14884171 -0.10891903
0.16589001 -0.08792201 -0.18711591 0.09237299 0.09183853 -0.07219254 -0.124831475 0.17894351
-0.026942497 -0.10480913 -0.07100081 -0.043658745 0.123958945 -0.01586824 -0.002267481 -0.03910307
-0.12092856 0.13425162 -0.060717523 -0.15834206 0.2030519 -0.08862738 -0.06989438 -0.050534397
0.049675032 -0.04829386 0.011314177 -0.0046719564 -0.089697234 0.0042632287 -0.07989845 -0.040618863
-0.13908333 -0.115172796 0.09577525 0.11803275 -0.0006833884 0.26292866 0.040706422 0.113774925
-0.03238929 -0.025649706 0.024286529 0.092587546 0.03256184 -0.061069015 -0.0032006206 -0.016416391
-0.008665024 -0.050571144 -0.042649377 -0.002464584 0.087156296 0.11125791 0.122217335 0.09854949
0.10748247 0.0026041283 -0.10779855 -0.1395795 -0.15913495 0.025036074 -0.20782815 0.081954546
-0.011000695 0.070998915 0.055735298 -0.22825007 0.066970535 0.014199844 -0.0038561097 0.0048868363
0.030980702 0.08473814 -0.03772156 0.0025884297 0.095321745 -0.11877867 -0.23482783 0.09001866
0.029044839 0.21323556 0.028103977 -0.035560846 0.12288748 0.13327213 -0.3219682 -0.042673465
0.12276807 -0.17604737 -0.17923391 0.010218988 0.02993626 -0.13669598 -0.15547948 -0.16208267
0.02774115 0.097591914 0.21707541 -0.068440974 -0.01473149 0.09769082 -0.0052742395 -0.0670544
0.018024929 0.089897126 0.045553427 0.12783773 0.19705366 0.016125537 0.05474901 -0.09445308
0.0352206 0.111036606 -0.0705286 0.20062405 0.16007107 0.16174708 0.03186845 0.002594959
-0.13579954 0.12845492 -0.062551506 -0.08458083 -0.09508572 -0.020860605 -0.081157245 -0.051961314
-0.15593846 0.2682069 -0.00134157 -0.09074074 0.12111052 0.19776934 -0.084107816 0.04529393
0.08635881 0.0030061686 -0.2421127 -0.10814798 -0.13747764 0.006332218 0.024424225 -0.0154891005
-0.039724074 0.021198643 -0.10305824 0.054602545 -0.06870585 0.012236008 0.0871751 0.04414904
0.03926027 -0.025503749 0.051999494 0.05256041 0.115182094 -0.08448891 0.24176784 0.10403905
0.013154287 0.021627367 0.13576266 -0.005173334 -0.0064107506 -0.029177692 0.120919816 0.031701986
0.20115136 -0.19408636 0.022885473 -0.18715855 0.0823192 -0.21613999 0.10106813 0.12619744
0.05655103 -0.13746178 0.013528152 0.05262915 0.08984982 0.051487785 0.12033992 0.05716801
0.09764035 -0.05639088 -0.1822674 -0.20727555 0.10075099 -0.09636055 -0.04034171 0.11806046
-0.23611121 -0.19704679 0.2941454 -0.12700616 0.1645137 0.0044886125 -0.015827885 -0.016247608
0.029722696 0.116179995 0.15902244 0.117003895 0.22695719 -0.14421016 -0.036424823 0.034702484
0.09773651 -0.031755984 0.10472015 -0.15916042 0.034687344 0.04093892 -0.0048460043 -0.11949466
-0.059923854 0.046115663 0.30879307 0.07835402 0.0476226 -0.01254012 0.19684827 -0.08311226
0.14308783 -0.14407262 -0.031970598 -0.07055358 0.00090446026 -0.016448095 -0.064660564 -0.27331457

fc1.bias f4 [84]
00000000: b0c7 0a3e e136 f0bd 6b37 983d 2ffc b23d
00000010: 2dc8 9b3d 6721 d4bd 6598 ee3d b187 0fbd
00000020: 0e54 913b 0a6f 21be b31d 063e e344 44bd
00000030: 8313 aa3d ea8f 1a3d 710e 98bc 72bd 8abb
00000040: 93e1 1bbc f6c4 1b3e dacf 65bc 760a b9bc
00000050: b721 bd3c 6cef f8bb a2f8 20bd bef6 fe3c
00000060: 088c dcbd 8e11 553b 157f ab3d 151f 0bbd
00000070: ade0 07be eb7a 953c 0f5b fdbd 4ac5 2bbe
00000080: b691 c53d a85b 843d 8b10 ab3c 09ea 0dbc
00000090: daf6 79bd e7e8 e7bc 192e 853c 7290 863b
000000a0: b76a 213d dfe1 333d 48cb 8cbd 8483 55bc
000000b0: ede4 9d3d 1505 bb3d dc79 6fbd 29d5 8dbc
000000c0: 277d 6fbd 143c 1bbc 2c1b e83c 6a92 da3d
000000d0: a26f babd 689a c73d 45d2 9c3d e7dc bfbb
000000e0: 6511 323e df29 a1bd 29d8 3abd 535b be3d
000000f0: 3da8 7f3d 8d1b e23c e20d 3a3d 6929 0cbd
00000100: 4267 aebc b233 17be 7909 833a 0c09 9f3c
00000110: 7db3 44bd 732c 85bd 9530 a5b9 a547 5c3d
00000120: 903a 403d 84e4 22bc d308 22be f6f6 4dbd
00000130: 3de4 203d 115d 343c a50b e0bd 98a8 63bc
00000140: 3d5d ba3d af1f 93bd 39bc 45bb f825 e43c
0.13552737 -0.11729217 0.07432445 0.087395065 0.0760654 -0.103579335 0.11650161 -0.035041515
0.004435069 -0.15765014 0.13097267 -0.047917258 0.08304503 0.037734903 -0.018561574 -0.0042340094
-0.00951423 0.15211853 -0.014026606 -0.022587996 0.023087366 -0.0075969007 -0.039299615 0.031123515
-0.10768896 0.0032511684 0.08373848 -0.03396519 -0.13269301 0.018247088 -0.12370884 -0.16774479
0.09646933 0.064627945 0.020881912 -0.008661755 -0.06102643 -0.028309299 0.016257333 0.0041065747
0.03940841 0.04391658 -0.0687471 -0.013031844 0.0770968 0.09131829 -0.058465824 -0.017313557
-0.058468964 -0.009474773 0.028333269 0.106724575 -0.091033235 0.097462475 0.07657293 -0.005855191
0.17389448 -0.078693144 -0.045616303 0.092947625 0.062416304 0.027601028 0.045423396 -0.03421918
-0.021289472 -0.14765814 0.000999733 0.019413494 -0.048022736 -0.06502619 -0.0003150745 0.053779263
0.04693085 -0.009942178 -0.15823679 -0.05028435 0.039280165 0.011008517 -0.10939721 -0.013895176
0.09099815 -0.071837775 -0.0030172004 0.027850136

fc2.weight f4 [10, 84]
00000000: d059 30be 919d 9c3e 0232 db3d 606c ab3e
00000010: ae14 103e e466 3ebe 484b 883d 38a2 153e
00000020: fa59 fbbd da51 16be ff55 0c3e 2994 cabe
00000030: 994a 44be 9b08 27be e56b 84be 03f8 893e
00000040: da53 90be 6057 c1be e62d 6c3e b39a f23d
00000050: faaf cabe 117b 5ebe 9976 a5bd cffb 5a3e
00000060: 8530 ef3c 842d d1bd 5460 77bc 21b9 30be
00000070: 0626 d63e 8c67 babd 998a 2ebe f4c4 043e
00000080: aceb eabd a14a c13e 7625 80be db2a adbd
00000090: 61fa b73e 8e37 693e 1f4c d03e b647 1d3e
000000a0: 511b 49be 8e32 f4bc e815 6ebe 5950 533e
000000b0: 7f74 be3d 0a3a 2fbe 4d41 393d 6dca 9f3e
000000c0: 3cac 8f3e d3de bebd 8120 ef3d 2682 253e
000000d0: 9583 323e 1df7 a8be 3a38 89be 1150 89be
000000e0: 4683 19be 4b34 573e 0e2b b4be 1f89 3a3e
000000f0: 5a34 44be d695 6e3e 7d9a 82be dda5 07bd
00000100: 09b4 d33e b50f e03d 405f 5dbe 9af9 88be
00000110: 94bd ab3e 8e25 1cbe 508c aa3e c0c2 783e
00000120: f865 3dbe 5a42 79bd 971a a0be 67c8 94be
00000130: f491 3bbe 3324 febd 65d6 50be b2a7 8ebe
00000140: 88c1 4b3e 10e2 5e3d 610a 393e 264d 7ebe
00000150: 088c c03e 8d64 a43d 8d8c 30be 4352 bdbd
00000160: e597 00be 0fed 7d3e 0686 7f3e 7ee2 623e
00000170: 74d2 8a3e e3a2 053e 4b96 40be 20f0 243e
00000180: 862b 8b3e aa22 843e 5f69 cf3d b557 a43e
00000190: 3f5a 07bc 2916 593e 2090 8d3e 3a6b d0be
000001a0: 7cf9 96be 5f87 86be 420c 3ebe 1611 7f3e
000001b0: 24dc b1be 9dcd da3e 8d7f 6abe 24fb 6bbe
000001c0: 76c6 61be 7da0 bf3e 68f5 893e 4cc0 acbe
000001d0: 7833 d83e 682f 483e f9b0 6c3e cbe1 b93e
000001e0: 0525 74bd 35d3 8fbd 4f34 fbbd a544 a8be
000001f0: 87cc 683e a108 c63e 14b0 ed3d 1200 66be
00000200: 8983 3dbe 1cc9 743c a5da 9dbe cadf 25be
00000210: ce88 0dbe c068 993e c733 44be d247 5cbe
00000220: fe8d 9abe 0239 603e a1c4 173e d039 753e
00000230: 130c 9f3e 0f43 72be 8ee5 9cbe 504f 5fbe
00000240: 5732 edbd 2529 2e3e 4697 023e 7030 903e
00000250: ce0c 62be 0d2c 6bbe b311 083e 71f7 223e
00000260: 069c 2ebe 0a7f a33e b274 3abe 6592 44be
00000270: b244 063e 20ce 373e 2f18 8ebe e541 e43d
00000280: f206 a73e 4e1c f23e 7792 92be da3e 6f3d
00000290: 4752 533d 46b9 aabe 9d9f 82be 9c39 eb3d
000002a0: 3323 843e ff27 4ebe a056 54be 8f6b b43e
000002b0: 52be 8fbe debf 803e 4fa7 313e 0d52 92be
000002c0: ded5 e63e 8f05 8f3d befc bb3e 5a11 3e3e
000002d0: ac5f cbbd 9a38 883e cb84 433e f1f9 c1be
000002e0: 7598 a4be 16cf 8bbe 7de5 c2be 8c96 413e
000002f0: 82f9 d03d 4007 593e c67b a6be b3bb 06be
00000300: 1e6c 0f3e f8e7 f13d 78e2 743c 77e4 87be
00000310: 7a4a 723e 817f 87be fa00 9dbe e0c3 f3be
00000320: 5257 953d 1c0a 0b3f 0bd2 c4be 59f8 3ebd
00000330: ef9b 553e a50b 86be 69dd f63e 7988 d6bd
00000340: ff0c 143e f9e9 863c 5dd0 b13e 7a33 093e
00000350: 1d3a 2d3e a3b8 42be cbef 013e e7c3 d43e
00000360: c712 c2be bbee 76be c547 493e e691 723e
00000370: 0c36 83be 10be b93d 73c5 aebe e908 c33e
00000380: 2336 9fbe 9ac6 e7bd 014d 783e 1c05 85be
00000390: c502 84be 8120 87be 0cfd 8d3e 3bce b53d
000003a0: ffb1 9f3d c280 983d 4e58 6abe c795 833e
000003b0: 5f09 a5bd cf53 8fbe 2a48 49be 7d0e 8abe
000003c0: 1ec6 c43d 88a0 3fbe 3051 c9be f065 9fbe
000003d0: 170a c43e 489d 6fbd 94b6 9ebe 8fdf b8be
000003e0: fe84 b03e a83d a63d 33bb 673e d0be 7ebe
000003f0: 2979 0dbe cfde afbe 8f58 c03e 0da0 a93e
-0.17221761 0.30588964 0.107028976 0.3348112 0.14070389 -0.18593937 0.06654984 0.14612663
-0.12273021 -0.14679661 0.1370468 -0.39566162 -0.19169082 -0.16311876 -0.25863567 0.2694703
-0.28188974 -0.37761974 0.23064384 0.11845913 -0.39587384 -0.21726634 -0.08079261 0.2138512
0.02919794 -0.102137595 -0.01509865 -0.17258121 0.41825885 -0.09101781 -0.17045058 0.12965757
-0.11470732 0.3775225 -0.2502858 -0.0845544 0.3593321 0.22775099 0.40683076 0.15359387
-0.19639327 -0.029809263 -0.23250544 0.20636119 0.092995636 -0.17111984 0.04522829 0.31209126
0.28061092 -0.09319844 0.116761215 0.16162929 0.17433007 -0.33001032 -0.2680071 -0.26818898
-0.14991483 0.21016042 -0.35189098 0.1821637 -0.19160596 0.23299345 -0.2550849 -0.033117164
0.41348293 0.10940496 -0.21618366 -0.2675293 0.33543074 -0.15248701 0.33310175 0.24293041
-0.18495929 -0.060854293 -0.31270286 -0.29059145 -0.18317395 -0.12409248 -0.20394285 -0.27862316
0.19898045 0.05441481 0.18070365 -0.24834117 0.37606835 0.08026991 -0.17241116 -0.09244206
-0.12557943 0.24797462 0.2495347 0.22156712 0.27113688 0.13050418 -0.18807332 0.16107225
0.27181643 0.25807697 0.1012752 0.32098165 -0.008261262 0.2119986 0.2764902 -0.40706807
-0.29487216 -0.26275155 -0.18559363 0.24908862 -0.34738266 0.42734995 -0.2290022 -0.23045021
-0.22048363 0.3742713 0.26945043 -0.3374046 0.42226768 0.19549334 0.23114385 0.3630508
-0.059605617 -0.070227064 -0.122658364 -0.32864872 0.22734271 0.38678458 0.1160585 -0.22460964
-0.18507208 0.014940526 -0.30830875 -0.1619865 -0.13821718 0.2996273 -0.19160376 -0.21511772
-0.30186456 0.21896747 0.14821102 0.23947835 0.310639 -0.23658393 -0.30643886 -0.21807599
-0.11581867 0.17007883 0.12753019 0.28161955 -0.22075197 -0.22966023 0.13288002 0.15914704
-0.17051706 0.3193286 -0.18208578 -0.1919647 0.13112143 0.17949724 -0.27752826 0.11145381
0.32622486 0.4728722 -0.2862737 0.05840955 0.051592138 -0.33344477 -0.255124 0.114855975
0.25808105 -0.20132445 -0.2073617 0.3523831 -0.2807489 0.25146383 0.1734898 -0.28578225
0.45085043 0.06983482 0.36716264 0.18561307 -0.09930357 0.26605684 0.19093625 -0.37886003
-0.32147565 -0.27306432 -0.3806571 0.18905085 0.1020384 0.21194172 -0.32516307 -0.13157539
0.14006087 0.11811823 0.0149465725 -0.26541492 0.23661223 -0.26464465 -0.30664808 -0.47610378
0.07292046 0.543123 -0.384415 -0.04662356 0.20860265 -0.2618076 0.48215798 -0.10475249
0.14458083 0.016468989 0.3472928 0.13398543 0.169167 -0.19015746 0.1268913 0.41555712
-0.3790495 -0.24114506 0.19656284 0.23688468 -0.25627172 0.09069455 -0.34135017 0.38092735
-0.3109599 -0.11317177 0.24248125 -0.2598046 -0.25783363 -0.26391986 0.27732122 0.08877226
0.07797622 0.074464336 -0.22885248 0.2570021 -0.08058428 -0.27993628 -0.19656435 -0.2696418
0.096081 -0.18713582 -0.39319754 -0.3113246 0.38288948 -0.058499604 -0.3099867 -0.36108062
0.34476465 0.08117229 0.22630005 -0.24877477 -0.1381575 -0.34349677 0.37567565 0.33129922

fc2.bias f4 [10]
00000000: 03c0 48bd 8121 cb3c 203d 2a3e 444f d23a
00000010: 3b64 d2bd e478 1b3e 894a 1e3d f2fb 94bc
00000020: 69f1 12be 725f 9b3c
-0.04901124 0.02479625 0.1662488 0.0016045352 -0.10273024 0.15182835 0.0386453 -0.018186543
-0.14349903 0.01896641
