model/lenet5.pt (torch, 249659 bytes, 10 tensors)

conv1.weight f4 [6, 1, 5, 5]
-0.31650892 -0.273167 -0.35264435 -0.024776893 -0.09480433 -0.015577095 -0.23174116 -0.2647522
0.07112747 0.15208347 0.053778984 0.024886006 0.14146419 -0.1187136 -0.12827033 0.14679304
0.09834008 0.0017931364 0.16983458 0.2276122 0.21814746 0.10984832 0.07601719 0.22406425
0.19943789 0.08844675 -0.113412715 -0.25089106 -0.32896197 -0.014309849 0.090527155 -0.36564824
-0.28221554 -0.33325562 -0.052605923 -0.2841922 -0.287269 -0.23807564 -0.10677892 0.14470801
-0.2806752 -0.16076769 -0.20171067 0.006352413 0.07574008 -0.33976057 -0.15848397 -0.15617731
0.037395403 0.0991915 0.17866772 0.32533023 0.28297454 0.20180333 0.0088941995 0.03670344
0.35504457 0.36533517 0.26804775 0.16195385 -0.076524824 0.024939774 0.254774 -0.045730606
-0.017520353 -0.13402075 -0.17720239 0.040344995 -0.2843338 0.0004940093 -0.24225427 -0.06445096
-0.13272585 -0.1303727 -0.3348703 0.17430079 0.33467123 0.3449581 0.043698512 0.18640116
0.24303974 0.21834826 0.30096796 0.25882524 0.22928968 0.08894627 -0.039139826 0.17101963
-0.012195984 -0.16572274 -0.22663093 -0.0075542484 -0.22560398 -0.1407136 -0.19426078 -0.052305203
-0.09533215 -0.0667212 -0.013461926 -0.19627862 0.015461039 0.017415512 0.2557219 0.3446596
0.35535553 0.25093397 -0.048430584 0.22756016 0.10541408 0.06499108 0.11088609 -0.09699291
0.11654002 -0.15812308 -0.160875 -0.2358117 -0.2982043 -0.43609264 -0.23974814 -0.36703846
-0.10384758 -0.3658271 -0.35315955 -0.3958122 -0.31665882 -0.2440169 -0.099358045 -0.1261755
0.34104908 0.16967782 -0.19602863 0.0028173183 0.32288548 0.39027286 0.35831445 -0.20307215
0.17204861 0.3005903 0.37903383 0.088236846 -0.31228352 -0.060886238 0.07847469 0.29842705
0.05587194 -0.335012 0.074043244 -0.106409036 -0.17858216 -0.16458178
00000000: 750d a2be 8cdc 8bbe cd8d b4be e9f8 cabc
00000010: c628 c2bd 1237 7fbc 8e4d 6dbe 9a8d 87be
00000020: 47ab 913d c5bb 1b3e 5a47 5c3d bddd cb3c
00000030: fddb 103e 1e20 f3bd 4c59 03be ea50 163e
00000040: 8666 c93d ac07 eb3a 1ee9 2d3e 2c13 693e
00000050: 0c62 5f3e 28f8 e03d e7ae 9b3d 1971 653e
00000060: 7239 4c3e 9223 b53d ed44 e8bd cb74 80be
00000070: b46d a8be db73 6abc 4d66 b93d 3f36 bbbe
00000080: 8e7e 90be 7ba0 aabe 4f79 57bd a481 91be
00000090: ec14 93be 1aca 73be e8ae dabd 562e 143e
000000a0: a9b4 8fbe 49a0 24be 3e8d 4ebe e727 d03b
000000b0: 9d1d 9b3d 19f5 adbe 9f49 22be f2ec 1fbe
000000c0: ec2b 193d ea24 cb3d acf4 363e af91 a63e
000000d0: 0ae2 903e 88a5 4e3e fab8 113c 5956 163d
000000e0: 67c8 b53e 360d bb3e 8e3d 893e 3bd7 253e
000000f0: 0cb9 9cbd 7f4e cc3c bd71 823e 0450 3bbd
00000100: d886 8fbc bc3c 09be 8b74 35be cb40 253d
00000110: 3394 91be 6780 013a 8111 78be ddfe 83bd
00000120: 49e9 07be 6c80 05be 1f74 abbe e87b 323e
00000130: 075a ab3e 599e b03e 36fd 323d f2df 3e3e
00000140: 69df 783e b096 5f3e 7918 9a3e be84 843e
00000150: eaca 6a3e 7629 b63d 1551 20bd c51f 2f3e
00000160: aad1 47bc 39b3 29be f011 68be a189 f7bb
00000170: bb04 67be 3a17 10be 4cec 46be fb3d 56bd
00000180: 813d c3bd 20a5 88bd 698f 5cbc 43fd 48be
00000190: 4c50 7d3c faaa 8e3c fbed 823e 3977 b03e
000001a0: 29f1 b53e 6b7a 803e 265f 46bd 8805 693e
000001b0: 56e3 d73d 0b1a 853d 3f18 e33d 38a4 c6bd
000001c0: 89ac ee3d 04eb 21be 6abc 24be 9f78 71be
000001d0: 3cae 98be 8947 dfbe 8980 75be 77ec bbbe
000001e0: 0aae d4bd b14d bbbe 54d1 b4be e6a7 cabe
000001f0: 1b21 a2be 91df 79be 3b7c cbbd 2634 01be
00000200: fc9d ae3e 06c0 2d3e bbbb 48be c2a2 383b
00000210: 3f51 a53e d8d1 c73e fe74 b73e 25f2 4fbe
00000220: 832d 303e f9e6 993e b910 c23e 85b5 b43d
00000230: a0e3 9fbe d963 79bd 57b7 a03d 6ecb 983e
00000240: fad9 643d b186 abbe fca3 973d fbec d9bd
00000250: 3ede 36be 2088 28be

conv1.bias f4 [6]
0.029192064 0.13161089 -0.08680053 -0.18738754 -0.09867803 -0.16300851
00000000: 3224 ef3c 01c5 063e 7ac4 b1bd 85e2 3fbe
00000010: b517 cabd b4eb 26be

conv2.weight f4 [16, 6, 5, 5]
-0.022322413 -0.062551625 0.043951143 -0.054345496 -0.040639427 0.080070876 0.109728225 0.041481975
0.08079097 0.041078918 0.07426145 0.23132716 0.15241525 -0.046083547 0.040889204 0.041143235
0.05662512 -0.00041144007 -0.040130835 -0.026268318 -0.10836095 -0.022549441 -0.040740643 0.059795808
0.08643619 0.0641157 0.119609505 0.11315277 -0.0010305375 0.09462216 0.055143062 0.027054192
0.008093759 -0.026240617 0.14217523 0.08601952 0.037929043 -0.022720922 -0.03569449 0.057582285
0.011234164 -0.0601992 -0.060793214 0.032282356 -0.072189555 -0.11602946 -0.058052264 -0.0062293056
-0.061932452 0.0070424764 -0.062423576 -0.008100642 -0.07619606 -0.03676108 0.029974336 -0.0221647
-0.20034783 -0.20382527 -0.12607212 -0.12275826 -0.18253277 -0.22176176 -0.1616559 -0.11648574
-0.03384656 0.023188265 0.059463646 -0.031589054 -0.021969 -0.07629548 0.15127105 0.19532102
0.020573147 0.05885257 -0.028621275 0.053341467 -0.04061881 -0.029115323 -0.020774368 -0.057999074
-0.081796885 -0.16648823 -0.10338503 -0.16159308 -0.15782031 -0.109661736 -0.09617023 -0.11736478
0.028196776 -0.03084947 0.07405354 0.0040044193 0.0512914 0.09176474 0.03748551 0.11036343
0.0938033 0.13822551 0.023833686 0.007511705 -0.028625695 0.032822963 -0.069291614 0.114185885
0.13265084 -0.07110203 -0.05180658 -0.07373399 0.048597574 0.04718896 -0.12313451 -0.0424937
0.007649464 -0.03430139 -0.015312696 -0.100273624 -0.03890083 -0.08695534 -0.03018747 0.03263443
-0.041916545 -0.0822771 -0.07764409 -0.17725326 -0.10765423 -0.2025275 -0.08801814 -0.042375065
-0.09995405 -0.11990667 -0.23394433 -0.14799385 -0.05722754 -0.13294272 -0.24734275 -0.05700103
-0.041732095 -0.10440239 0.005354072 -0.15007538 0.04018913 0.054034777 0.036195345 -0.08281461
-0.17654836 0.14948858 0.0023280852 0.041948684 0.07407475 -0.20207372 0.10688751 0.011816585
-0.038662042 0.03398404 -0.020871932 0.09928441 -0.003126976 -0.11586607 -0.006973393 -0.16567011
-0.017312903 -0.19649577 -0.12458163 -0.033591904 -0.17316347 0.028454743 -0.07661852 0.14980236
0.15564972 0.23632196 0.021514801 -0.014522625 0.10694898 0.041780073 0.019663068 0.1338576
-0.05432102 -0.1264528 0.02629141 -0.113983236 -0.089395136 -0.15577023 -0.09820327 -0.08021332
-0.077091955 -0.16967449 -0.15580626 -0.11523226 0.027168123 -0.07779143 -0.20475739 -0.20678219
-0.12576391 -0.03201155 0.023318462 -0.11423966 -0.1146774 -0.15291385 -0.07875572 -0.10285793
-0.22217782 -0.18634196 -0.097059466 -0.13289838 0.006358261 0.009216621 0.122307405 -0.103916325
-0.00043287023 0.1381281 0.047998622 0.084375165 -0.18051809 -0.16904648 -0.025816567 0.08805331
0.05825527 -0.2592085 -0.35177547 -0.32375786 0.02335959 0.015184884 -0.12835492 -0.14980412
0.035247523 -0.21216996 -0.13033976 -0.12118298 -0.061517794 -0.04293908 0.021298815 0.055161543
0.024929862 -0.0051911487 0.01001418 -0.071962535 0.14542867 -0.02842946 -0.009142906 -0.07643106
0.050739612 0.0048248093 -0.102157116 -0.21152787 -0.24319533 0.077982515 0.0716687 0.04991606
0.029449368 -0.11153519 -0.0016241485 -0.018232273 0.0601709 0.0042164424 0.042576794 -0.037859887
00000000: 7edd b6bc 111b 80bd 1d06 343d 6299 5ebd
00000010: 8775 26bd 33fc a33d 31b9 e03d 01e9 293d
00000020: bc75 a53d 5e42 283d 6316 983d 07e1 6c3e
00000030: be12 1c3e 1ac2 3cbd 707b 273d cf85 283d
00000040: beef 673d 8db6 d7b9 3b60 24bd a830 d7bc
00000050: 59ec ddbd 9bb9 b8bc a9df 26bd 73ec 743d
00000060: 7505 b13d 184f 833d d4f5 f43d a4bc e73d
00000070: 1a13 87ba 43c9 c13d b1dd 613d c1a0 dd3c
00000080: b09b 043c 90f6 d6bc 6296 113e 012b b03d
00000090: 7c5b 1b3d 3a21 babc 6334 12bd 67db 6b3d
000000a0: 800f 383c 7093 76bd 4e02 79bd 813a 043d
000000b0: 1ed8 93bd dba0 edbd 36c8 6dbd 341f ccbb
000000c0: e2ac 7dbd 93c4 e63b ddaf 7fbd 8eb8 04bc
000000d0: ae0c 9cbd c992 16bd bd8c f53c bf92 b5bc
000000e0: fb27 4dbe 92b7 50be 0d19 01be af68 fbbd
000000f0: dfe9 3abe 8415 63be 2089 25be 1390 eebd
00000100: b1a2 0abd 51f5 bd3c 2790 733d 8663 01bd
00000110: 55f8 b3bc ce40 9cbd cce6 1a3e 3c02 483e
00000120: 0489 a83c 640f 713d 2a77 eabc 957c 5a3d
00000130: e95f 26bd 4283 eebc 022f aabc 7090 6dbd
00000140: 2085 a7bd e47b 2abe 88bb d3bd a878 25be
00000150: a69b 21be 5596 e0bd e6f4 c4bd f25c f0bd
00000160: edfc e63c 07b8 fcbc 62a9 973d 8137 833b
00000170: ee16 523d 27ef bb3d 688a 193d 3906 e23d
00000180: f21b c03d fd8a 0d3e dd3e c33c c024 f63b
00000190: 6f80 eabc 5f71 063d c3e8 8dbd 4ada e93d
000001a0: 9fd5 073e f19d 91bd 2333 54bd d901 97bd
000001b0: 400e 473d 3649 413d f22d fcbd e00d 2ebd
000001c0: 5ba8 fa3b 9d7f 0cbd 1ae2 7abc 425c cdbd
000001d0: 7a56 1fbd a415 b2bd b74b f7bc aeab 053d
000001e0: afb0 2bbd e580 a8bd dd03 9fbd e181 35be
000001f0: d279 dcbd 5e63 4fbe db42 b4bd 7a91 2dbd
00000200: b5b4 ccbd a191 f5bd 1a8f 6fbe b38b 17be
00000210: 6d67 6abd 2322 08be 6b47 7dbe e979 69bd
00000220: 46ef 2abd ecd0 d5bd 3671 af3b 5cad 19be
00000230: 5b9d 243d 9253 5d3d 9241 143d b59a a9bd
00000240: 18c9 34be 8913 193e ca92 183b 62d2 2b3d
00000250: 81b4 973d 6aec 4ebe d7e7 da3d 5a9a 413c
00000260: 175c 1ebd d932 0b3d 9dfb aabc a055 cb3d
00000270: f4ed 4cbb 314b edbd 0f81 e4bb 6da5 29be
00000280: cad3 8dbc 3036 49be a724 ffbd aa97 09bd
00000290: c451 31be ec19 e93c 2cea 9cbd ca65 193e
000002a0: a462 1f3e 62fe 713e cf3f b03c 4ef0 6dbc
000002b0: 1108 db3d 9521 2b3d 7114 a13c f711 093e
000002c0: b87f 5ebd d87c 01be 1561 d73c 0b70 e9bd
000002d0: cc14 b7bd 3b82 1fbe cc1e c9bd e246 a4bd
000002e0: 63e2 9dbd 26bf 2dbe ad8b 1fbe e4fe ebbd
000002f0: af8f de3c 1d51 9fbd ecab 51be b6be 53be
00000300: 41c8 00be 8b1e 03bd 5c06 bf3c 7cf6 e9bd
00000310: fcdb eabd 7395 1cbe ae4a a1bd 2ea7 d2bd
00000320: 9582 63be 6dd0 3ebe 1dc7 c6bd 8316 08be
00000330: f658 d03b 4f01 173c 4e7c fa3d 15d2 d4bd
00000340: dcf2 e2b9 7471 0d3e 349a 443d e3cc ac3d
00000350: bcd9 38be 851a 2dbe 447d d3bc 4b55 b43d
00000360: 149d 6e3d fab6 84be ea1b b4be 97c3 a5be
00000370: 9c5c bf3c 05ca 783c 796f 03be 4066 19be
00000380: b55f 103d 1543 59be c977 05be c82e f8bd
00000390: 15fa 7bbd e4e0 2fbd da7a ae3c 12f1 613d
000003a0: b639 cc3c 831a aabb 8412 243c 1861 93bd
000003b0: 41eb 143e e6e4 e8bc 21cc 15bc e387 9cbd
000003c0: 57d4 4f3d 6f19 9e3b c037 d1bd c39a 58be
000003d0: 3208 79be 4cb5 9f3d 0ac7 923d c874 4c3d
000003e0: cd3f f13c 906c e4bd 61e1 d4ba d95b 95bc
000003f0: c375 763d 152a 8a3b 0165 2e3d f812 1bbd

conv2.bias f4 [16]
0.08496776 -0.09349576 -0.042286817 -0.019106697 0.0910353 0.07281618 -0.051176943 0.055092525
0.0055134906 0.023412773 0.03326663 0.11226883 0.11409659 -0.14446306 0.10697031 -0.048507188
00000000: 9403 ae3d b47a bfbd f134 2dbd a685 9cbc
00000010: b770 ba3d a620 953d ea9e 51bd b3a8 613d
00000020: 83aa b43b 25cc bf3c 9742 083d 33ed e53d
00000030: 79ab e93d 20ee 13be 4013 db3d 79af 46bd

conv3.weight f4 [120, 16, 5, 5]
0.045110557 0.06560066 0.029880218 0.0350165 0.026857961 -0.005599441 0.08980967 0.04253854
0.06435395 0.009383103 0.16174892 0.076483555 -0.07903845 0.05914418 0.06811664 -0.020034837
0.13495554 0.060500275 -0.047977466 -0.016204078 -0.019358413 -0.07888479 -0.062182575 -0.073209725
-0.038252812 0.018604485 0.017769376 -0.051478896 -0.072840005 -0.03743984 0.067855194 -0.1013921
-0.07283239 -0.007974233 0.07753385 0.045558732 0.06766304 -0.017868474 0.0058019566 -0.15505178
-0.12488086 -0.10052128 -0.110646 -0.06724499 0.0044191885 0.10222062 0.017799653 0.097746275
-0.088101484 -0.0847706 -0.045810428 0.030985633 0.03897244 0.046306137 -0.040601082 0.025093695
-0.027393589 0.05150047 -0.049655385 -0.041671455 -0.02066905 -0.070951164 -0.0026177512 -0.0012938828
-0.036695972 -0.012691319 -0.050558824 -0.04651146 -0.024991527 -0.19919312 -0.034477584 -0.2031944
-0.097409666 -0.14405215 -0.117397584 0.013107799 -0.0031098027 -0.116846226 0.021078367 0.06487185
-0.07430017 -0.031603068 0.010780491 -0.0032684759 -0.12150995 -0.043911938 -0.07534882 -0.113994256
0.017924622 0.055978946 0.01537724 0.015142331 -0.014248248 0.04640391 0.11185754 -0.053910267
-0.0791674 -0.13896674 -0.22000197 -0.16382936 -0.05684892 0.024702653 -0.030233692 -0.059086602
0.030982848 0.042838573 0.069147356 -0.028821237 -0.052759428 0.09774535 0.019188272 0.023652682
-0.056219734 0.0914962 -0.0073492387 -0.0851255 -0.07367646 -0.18339479 0.013556126 -0.12465149
-0.0048353486 0.0101014 0.07284181 0.03496207 -0.0080597615 0.0777143 -0.042428248 -0.02829772
0.076069094 0.15216531 -0.0820849 0.059905536 0.04009984 0.06434141 -0.05281209 0.024409682
-0.028964229 -0.052528996 0.04285985 0.014894459 0.1254528 -0.028332952 0.08588048 0.000734196
0.04214353 -0.13746348 -0.017658167 -0.08283007 -0.07646122 -0.109454736 0.017405963 0.02180682
0.019247938 0.06279398 -0.021837495 -0.0066134944 0.042452265 -0.007086887 0.075289406 -0.05626803
-0.02063994 -0.13682583 -0.030987924 0.08027735 0.049093567 0.02036331 0.06216983 0.007464247
0.024704846 -0.07244435 -0.14661646 -0.05286098 -0.16580582 -0.10423278 -0.071824536 -0.005358013
0.018904623 0.039397493 0.07082347 0.050156895 -0.07736165 0.049444426 0.03018342 0.04590854
-0.049806684 0.09863185 -0.064669326 -0.0033307872 0.05666596 -0.0010746676 0.001778434 0.05309024
-0.008911315 -0.14099492 0.0067169904 -0.20866685 -0.1569956 -0.15732151 -0.21565935 -0.07155578
-0.01675731 -0.06661227 -0.054842897 0.06695784 0.0037186723 -0.01717633 -0.03764099 0.066660285
0.015654081 -0.055896748 -0.06452707 -0.15196607 -0.05480089 0.014447106 0.03910882 0.12108801
-0.03757976 -0.11514462 -0.011409146 -0.06419794 -0.1066583 -0.052863393 -0.11201453 -0.116746165
-0.06489158 0.003938065 -0.058032434 -0.11700849 -0.061478954 -0.01410067 -0.034467414 -0.12872157
-0.024214162 -0.068207584 0.069495924 -0.08104697 -0.09594834 -0.029736405 -0.035720415 -0.016932128
0.15414189 0.011400578 0.030287463 0.04535854 0.08742772 -0.15366484 -0.05031582 0.09306029
-0.13643718 -0.13176839 -0.078057356 -0.018349322 0.056333568 -0.022722749 0.025777414 0.025479892
00000000: d9c5 383d a459 863d 5cc7 f43c 766d 0f3d
00000010: 3a05 dc3c 847b b7bb 22ee b73d e43c 2e3d
00000020: 01cc 833d 96bb 193c 82a1 253e 69a3 9c3d
00000030: e9de a1bd 2b41 723d bd80 8b3d 1920 a4bc
00000040: c931 0a3e 23cf 773d 0584 44bd 6abe 84bc
00000050: 8995 9ebc 598e a1bd 28b3 7ebd fbee 95bd
00000060: fbae 1cbd 6f68 983c 1591 913c 89db 52bd
00000070: 242d 95bd 855a 19bd aaf7 8a3d a9a6 cfbd
00000080: 2629 95bd 5ba6 02bc 11ca 9e3d cb9b 3a3d
00000090: eb92 8a3d e860 92bc 571e be3b e5c5 1ebe
000000a0: 89c1 ffbd 1ade cdbd 5f9a e2bd beb7 89bd
000000b0: d7ce 903b 0b59 d13d 94d0 913c 332f c83d
000000c0: 8d6e b4bd 359c adbd b7a3 3bbd 95d5 fd3c
000000d0: 91a1 1f3d 81ab 3d3d 524d 26bd 4b91 cd3c
000000e0: 8568 e0bc 28f2 523d 7263 4bbd b0af 2abd
000000f0: 2452 a9bc d84e 91bd 948e 2bbb 8197 a9ba
00000100: 844e 16bd 40ef 4fbc c516 4fbd cd82 3ebd
00000110: 08bb ccbc 48f9 4bbe 5e38 0dbd 3112 50be
00000120: b87e c7bd 6882 13be 256e f0bd 18c2 563c
00000130: d5cd 4bbb 134d efbd 8aac ac3c 88db 843d
00000140: b02a 98bd 3872 01bd a8a0 303c ed33 56bb
00000150: 35da f8bd 01dd 33bd 7b50 9abd d275 e9bd
00000160: a8d6 923c 2e4a 653d d2f0 7b3c 8a17 783c
00000170: 7c71 69bc 0712 3e3d 9115 e53d 03d1 5cbd
00000180: 8522 a2bd 4c4d 0ebe 3248 61be e2c2 27be
00000190: 6ada 68bd 385d ca3c a6ac f7bc cb04 72bd
000001a0: becf fd3c 8077 2f3d 219d 8d3d 841a ecbc
000001b0: 451a 58bd b72e c83d b930 9d3c 45c3 c13c
000001c0: aa46 66bd 5c62 bb3d e2d1 f0bb 4756 aebd
000001d0: afe3 96bd d8cb 3bbe 831a 5e3c 4849 ffbd
000001e0: d871 9ebb 5880 253c 162e 953d 6334 0f3d
000001f0: 170d 04bc ad28 9f3d 3ec9 2dbd 9fd0 e7bc
00000200: 1dca 9b3d 39d1 1b3e 211c a8bd 825f 753d
00000210: bb3f 243d 6ec5 833d 7d51 58bd d0f6 c73c
00000220: 6446 edbc a528 57bd cf8d 2f3d e407 743c
00000230: b376 003e 821a e8bc 1be2 af3d 0f77 403a
00000240: b29e 2c3d 3ac3 0cbe dca7 90bc d0a2 a9bd
00000250: b397 9cbd ce29 e0bd f396 8e3c 37a4 b23c
00000260: daad 9d3c 219a 803d 8ce4 b2bc 03b6 d8bb
00000270: 6de2 2d3d 1e39 e8bb 5531 9a3d 4e79 66bd
00000280: 1715 a9bc 121c 0cbe 63da fdbc 7468 a43d
00000290: 5616 493d f5d0 a63c cba5 7e3d a496 f43b
000002a0: d161 ca3c b45d 94bd a022 16be c184 58bd
000002b0: 00c9 29be ff77 d5bd be18 93bd 4592 afbb
000002c0: dedd 9a3c 445f 213d e50b 913d 5171 4d3d
000002d0: c96f 9ebd 3d86 4a3d 3843 f73c 980a 3c3d
000002e0: 1802 4cbd 7fff c93d 5a71 84bd 5649 5abb
000002f0: 911a 683d dcdb 8cba 581a e93a 2775 593d
00000300: c400 12bc f960 10be 331a dc3b c3ac 55be
00000310: 74c3 20be e418 21be ced5 5cbe d68b 92bd
00000320: a046 89bc 046c 88bd f2a2 60bd 3121 893d
00000330: f8b4 733b 60b5 8cbc 702d 1abd 3085 883d
00000340: fd3c 803c fdf3 64bd c526 84bd fe9c 1bbe
00000350: e676 60bd 8eb3 6c3c 9230 203d fefc f73d
00000360: 3ced 19bd f1d0 ebbd 6ded 3abc 367a 83bd
00000370: ab6f dabd 4987 58bd e067 e5bd 9d18 efbd
00000380: e0e5 84bd e20a 813b 6bb3 6dbd 26a2 efbd
00000390: 5bd1 7bbd 7f06 67bc b42d 0dbd 96cf 03be
000003a0: c75c c6bc 6bb0 8bbd e153 8e3d f4fb a5bd
000003b0: 9080 c4bd c399 f3bc 924f 12bd 3fb5 8abc
000003c0: 5fd7 1d3e 7dc9 3a3c 6a1d f83c e0c9 393d
000003d0: 4e0d b33d 515a 1dbe f617 4ebd 6596 be3d
000003e0: 30b6 0bbe 4bee 06be 89dc 9fbd 5151 96bc
000003f0: 07be 663d 0f25 babc 282b d33c 35bb d03c

conv3.bias f4 [120]
-0.014918943 0.013557594 -0.015693422 0.0025941865 0.023766957 -0.023032216 -0.07627467 -0.024308596
-0.07873496 0.034552783 0.06668517 0.061706264 -0.02150546 0.04888816 -0.024163814 -0.07974305
-0.013605761 -0.14013807 0.11538729 -0.056401536 0.033191558 -0.0054146037 -0.048173912 0.001242138
-0.14116688 -0.043445118 0.010804262 0.0606467 -0.008880516 0.014549301 0.05925911 0.022712434
0.04658094 0.05688294 -0.0022440907 -0.01897185 -0.0007135838 -0.09901209 -0.021425916 -0.055999756
-0.05618584 0.009414336 -0.05899011 0.0063819946 0.0074880556 -0.0075803157 -0.07178978 0.073334895
0.10821039 0.006861584 -0.04853238 0.08578647 -0.042294748 3.048699e-07 0.0033992424 -0.0006483541
0.034141056 0.04430468 -0.013842965 -0.069688424 -0.035588264 0.067648135 0.053485148 -0.014016787
-0.01706646 -0.044727605 -0.0024184203 -0.037433326 0.0026340769 0.013014045 0.004609281 -0.043382976
0.035924703 0.01551817 -0.06456219 -0.038635153 -0.004594762 0.0021223992 0.11195816 0.085923545
0.088209376 -0.019905157 0.048479658 -0.032633133 -0.045608286 -0.015527615 0.0015946137 0.024549363
0.15685466 -0.05872421 -0.028227577 -0.0031848822 -0.089298055 0.023572091 -0.02417138 -0.06445803
-0.025426816 -0.047374796 0.062782876 -0.030293157 -0.074528545 0.0425404 -0.001731281 0.046951286
0.017105035 0.048409894 0.022512905 0.07342289 0.0076445527 0.035531316 -0.017780682 -0.036701504
0.0062364712 0.010445164 0.034559913 -0.03250363 0.041355096 -0.039886165 0.07385841 0.0472499
00000000: 956e 74bc ac20 5e3c 7e8f 80bc 3a03 2a3b
00000010: ecb2 c23c 0fae bcbc e535 9cbd d222 c7bc
00000020: cb3f a1bd 3887 0d3d 3c92 883d b5bf 7c3d
00000030: 382c b0bc f43e 483d 31f3 c5bc 5350 a3bd
00000040: b3ea 5ebc 5b80 0fbe 2c50 ec3d 4c05 67bd
00000050: dff3 073d fd6c b1bb 0252 45bd 3ccf a23a
00000060: 0d8e 10be 82f3 31bd 5c04 313c ad68 783d
00000070: 957f 11bc 3160 6e3c aeb9 723d 6d0f ba3c
00000080: a8cb 3e3d 16fe 683d 9811 13bb da6a 9bbc
00000090: cc0f 3bba dac6 cabd 6785 afbc 0060 65bd
000000a0: 2023 66bd 963e 1a3c 9d9f 71bd 0d20 d13b
000000b0: 5d5e f53b 4c64 f8bb 8506 93bd 9b30 963d
000000c0: 699d dd3d 23d7 e03b e4c9 46bd d1b0 af3d
000000d0: 423d 2dbd 00ad a334 d3c5 5e3b 4ff6 29ba
000000e0: 7ed7 0b3d d378 353d 9acd 62bc ceb8 8ebd
000000f0: 00c5 11bd 1b8b 8a3d 3e13 5b3d aaa6 65bc
00000100: f6ce 8bbc 4b34 37bd 5c7e 1ebb b053 19bd
00000110: 7aa0 2c3b dc38 553c 7409 973b 59b2 31bd
00000120: c825 133d ec3f 7e3c 2e39 84bd e53f 1ebd
00000130: a88f 96bb f317 0b3b 524a e53d aff8 af3d
00000140: 1ea7 b43d 2410 a3bc 9b92 463d 52aa 05bd
00000150: c1cf 3abd 8a67 7ebc 5b02 d13a bf1b c93c
00000160: 829e 203e cc88 70bd 853d e7bc 75b9 50bb
00000170: e6e1 b6bd 421a c13c 0f03 c6bc 9202 84bd
00000180: e64b d0bc 130c 42bd 4f94 803d 5b29 f8bc
00000190: 6ca2 98bd d83e 2e3d 27ec e2ba fe4f 403d
000001a0: dc1f 8c3c 7449 463d fc6c b83c bd5e 963d
000001b0: 287f fa3b 4989 113d cba8 91bc 5154 16bd
000001c0: 505b cc3b 3122 2b3c b28e 0d3d 8722 05bd
000001d0: f663 293d ad5f 23bd 1443 973d 1c89 413d

fc1.weight f4 [84, 120]
0.015880486 0.051887985 -0.109589174 0.028512154 -0.084205285 -0.20395188 0.11943319 -0.0032118568
-0.12060943 -0.15656306 0.19014618 0.104274556 -0.009815901 0.2052014 0.07871105 -0.042582784
-0.016791644 -0.27393723 0.11834019 -0.13769116 -0.17557444 -0.13052337 0.034722064 -0.09478447
-0.025702648 -0.24006736 -0.090402104 -0.091578096 -0.09549758 -0.14637864 0.020896856 -0.037874036
0.06595974 -0.13444804 0.08175954 -0.21023422 -0.02371158 -0.11207415 -0.05276267 -0.0281433
0.037429094 0.19761549 -0.12526119 -0.0884015 -0.031768776 -0.007501297 -0.05667315 0.062731475
0.24495028 0.11737842 0.21055757 -0.007863167 0.115702175 0.007129124 -0.0044315364 0.028054435
-0.03271506 -0.11039389 -0.10881509 0.078530096 -0.106898025 0.06536812 -0.010405671 0.1229128
-0.08089176 0.10095862 -0.09194106 0.04704562 0.024569605 0.01494116 -0.07644566 -0.035743166
-0.011833609 0.16804111 0.061574318 0.03442105 -0.031025086 0.041424066 0.16148569 -0.011026091
-0.111121655 0.098171555 0.035726186 0.08073697 0.12535459 -0.16102141 -0.14392589 -0.12405895
0.04710102 0.2621572 -0.22602339 -0.15076607 -0.016039731 -0.009640367 0.1312941 -0.19929752
-0.065759376 0.2447955 -0.11448116 -0.035317924 -0.060841657 0.12566398 0.11777086 -0.055264503
-0.034719743 0.11738357 -0.11186867 -0.06838109 -0.1770768 -0.11144465 -0.01812961 -0.089907914
-0.1097369 -0.14302082 0.020036954 0.0695065 0.12375351 0.06171099 -0.019863803 -0.12908627
0.0476481 -0.076492704 -0.020043075 -0.13030374 0.076716706 -0.059134953 0.07611926 0.11050139
0.102272704 0.015778074 -0.0034284822 -0.084568344 0.1688631 0.073674135 -0.20067115 0.049748495
-0.1907055 -0.13139994 -0.07631078 -0.026679305 -0.050134875 -0.028611962 0.29522577 0.13145444
-0.21589088 0.011103009 -0.028328093 0.029352633 0.07708578 0.14074732 -0.109621905 -0.1698143
-0.09598609 -0.05559862 -0.01412085 0.049950443 -0.050780486 -0.00499951 0.06557658 -0.03769398
-0.16990876 0.125018 0.08243692 0.16573341 0.14131272 0.0813661 0.006332102 -0.12572755
-0.22806601 -0.026003249 0.026157308 -0.02231319 0.093905546 0.041833535 0.098706186 0.053249516
-0.17902918 -0.057831418 -0.06766153 0.011123252 -0.17223813 0.10440617 0.0844356 0.02900767
-0.09177972 0.05366391 0.031240597 -0.35920882 -0.045017075 -0.08877606 -0.03479694 0.085480504
0.09382296 -0.08016852 -0.057141744 0.005750377 0.10562332 0.058995366 -0.06797926 -0.029245708
0.21816434 -0.0201489 -0.1317628 -0.08034013 0.012082764 0.092790544 -0.039596666 0.062536865
0.094531834 0.048581984 -0.042142857 0.054968428 -0.06811936 -0.16041298 0.25750983 0.022948995
-0.1077051 0.085762665 -0.053913478 0.039322697 0.050287895 0.022718562 -0.04920578 0.121510394
-0.027639486 -0.06197808 -0.119524084 -0.010254143 -0.09399095 0.092159964 -0.017862612 -0.14348291
0.034529522 0.12264142 0.036535755 -0.23817204 0.062376186 0.085569344 -0.13595957 -0.020532778
-0.10726738 -0.050041556 0.051645394 0.014153618 -0.13388483 0.067551345 0.0628385 -0.000712946
-0.049532153 -0.08257647 -0.0666046 0.2045728 0.14686726 0.055399027 0.15186585 -0.06599105
00000000: cb17 823c 7f88 543d 4a70 e0bd 5292 e93c
00000010: d273 acbd c3d8 50be 6399 f43d 047e 52bb
00000020: 1402 f7bd 1152 20be aeb5 423e e68d d53d
00000030: dfd2 20bc 5120 523e 4233 a13d 496b 2ebd
00000040: a18e 89bc 8041 8cbe 575c f23d e9fe 0cbe
00000050: c9c9 33be eba7 05be b938 0e3d 5c1e c2bd
00000060: 5c8e d2bc 38d4 75be bd24 b9bd 4c8d bbbd
00000070: 3c94 c3bd 48e4 15be e22f ab3c ce21 1bbd
00000080: e615 873d bfac 09be 8c71 a73d a447 57be
00000090: ca3e c2bc 2287 e5bd ab1d 58bd c78c e6bc
000000a0: 404f 193d b75b 4a3e 7844 00be d80b b5bd
000000b0: fa1f 02bd 71cd f5bb 1b22 68bd 5c79 803d
000000c0: 3fd4 7a3e 1964 f03d 679c 573e 83d4 00bc
000000d0: 43f5 ec3d 6d9b e93b 6c36 91bb 6ad2 e53c
000000e0: 3a00 06bd 3116 e2bd 72da debd 63d4 a03d
000000f0: 5aed dabd b9df 853d 8c7c 2abc b5b9 fb3d
00000100: 94aa a5bd 65c3 ce3d 984b bcbd e8b2 403d
00000110: 3246 c93c c4cb 743c 8b8f 9cbd 6d67 12bd
00000120: c1e1 41bc f812 2c3e 5a35 7c3d 16fd 0c3d
00000130: 5228 febc 48ac 293d 815c 253e c7a6 34bc
00000140: c093 e3bd 2b0e c93d 9f55 123d 6d59 a53d
00000150: f45c 003e cce2 24be 4f61 13be 9e12 febd
00000160: 00ed 403d 7839 863e ad72 67be 6c62 1abe
00000170: c165 83bc a1f2 1dbc f671 063e a614 4cbe
00000180: daac 86bd acab 7a3e 1975 eabd 87a9 10bd
00000190: 1a35 79bd 0fae 003e d931 f13d 085d 62bd
000001a0: 4a36 0ebd cc66 f03d 671b e5bd 630b 8cbd
000001b0: 9f53 35be 183d e4bd 8c84 94bc a421 b8bd
000001c0: bdbd e0bd 0d74 12be 8a24 a43c 6d59 8e3d
000001d0: 7b72 fd3d aac4 7c3d 6ab9 a2bc 312f 04be
000001e0: a72a 433d 35a8 9cbd 6031 a4bc 586e 05be
000001f0: a61d 9d3d 7e37 72bd 6ae4 9b3d 8e4e e23d
00000200: 5a74 d13d 0541 813c 63b0 60bb 2b32 adbd
00000210: 73ea 2c3e 77e2 963d bd7c 4dbe 14c5 4b3d
00000220: 4d48 43be b58d 06be d448 9cbd 8f8e dabc
00000230: 3a5a 4dbd a263 eabc d527 973e fe9b 063e
00000240: 8012 5dbe 65e9 353c 5110 e8bc ef74 f03c
00000250: 26df 9d3d 1120 103e 7381 e0bd cde3 2dbe
00000260: 5b94 c4bd 61bb 63bd 235b 67bc d698 4c3d
00000270: 33ff 4fbd eed2 a3bb 044d 863d 0165 1abd
00000280: 90fc 2dbe b804 003e b0d4 a83d 05b6 293e
00000290: 48b4 103e 45a3 a63d 867d cf3b b9be 00be
000002a0: 238a 69be c404 d5bc da47 d63c 27ca b6bc
000002b0: 8d51 c03d a459 2b3d 7826 ca3d 2a1c 5a3d
000002c0: 6d53 37be a3e0 6cbd 2192 8abd 4d3e 363c
000002d0: 315f 30be e7d2 d53d 92ec ac3d 7ea1 ed3c
000002e0: 01f7 bbbd b0ce 5b3d 48ec ff3c 38ea b7be
000002f0: d363 38bd 39d0 b5bd 3c87 0ebd 6710 af3d
00000300: 4126 c03d 652f a4bd 760d 6abd a96d bc3b
00000310: 0a51 d83d 20a5 713d b638 8bbd b294 efbc
00000320: 7966 5f3e 4e0f a5bc d4ec 06be 5e89 a4bd
00000330: c9f6 453c f808 be3d 1d30 22bd 5413 803d
00000340: e899 c13d e7fd 463d fd9d 2cbd 9326 613d
00000350: 2a82 8bbd 4d43 24be 54d8 833e 88ff bb3c
00000360: 7e94 dcbd 56a4 af3d 61d4 5cbd d610 213d
00000370: aefa 4d3d 471c ba3c 008c 49bd 71da f83d
00000380: 346c e2bc badc 7dbd 0bc9 f4bd fe00 28bc
00000390: 547e c0bd 5dbe bc3d 9d54 92bc 2fed 12be
000003a0: d46e 0d3d 6d2b fb3d 84a6 153d 5fe3 73be
000003b0: 2c7e 7f3d fb3e af3d fc38 0bbe 5b34 a8bc
000003c0: 00af dbbd 60f8 4cbd 1f8a 533d 94e4 673c
000003d0: 1b19 09be 5c58 8a3d 79b1 803d ffe4 3aba
000003e0: 3ae2 4abd da1d a9bd fe67 88bd 887b 513e
000003f0: 5f64 163e 17ea 623d b982 1b3e 5126 87bd

fc1.bias f4 [84]
0.08209195 -0.011961775 0.015496727 -0.12576042 -0.034637697 -0.17310292 -0.05005192 -0.031985037
0.0031006495 0.16118588 -0.044613756 -0.11776048 0.019584246 -0.122741856 -0.069269314 -0.025691414
-0.021905506 -0.06367098 0.057566717 -0.038567107 0.09460767 -0.059772767 -0.09179 -0.08871882
-0.053767774 -0.050587974 0.011711435 0.013200038 -0.045337584 0.15020299 -0.077888586 -0.0590498
-0.0064324248 -0.08362121 0.042378612 -0.0697191 0.070909925 -0.20563622 0.011999672 -0.14396136
0.06149996 0.014280212 0.09692845 -0.025423013 0.026992606 -0.089782715 -0.007969268 0.089876726
0.11093841 0.03898106 -0.04670856 0.030184045 0.03711821 -0.036689356 0.10773963 0.12456292
-0.02141651 -0.065757014 0.012025431 -0.052622657 0.044868495 -0.058135804 0.08523414 0.020173075
-0.094310336 0.043929916 0.010580439 -0.017078945 -0.018754402 -0.081764475 -0.17263788 -0.022798713
-0.007597958 -0.009803554 0.008267567 0.10874496 0.09399361 0.014944149 0.011158559 -0.051777244
-0.0511586 -0.018276868 -0.013628594 -0.05358716
00000000: d31f a83d 52fb 43bc fce5 7d3c 57c7 00be
00000010: 42e0 0dbd e441 31be 3e03 4dbd be02 03bd
00000020: 4434 4b3b e90d 253e eabc 36bd 682c f1bd
00000030: 246f a03c 1560 fbbd 12dd 8dbd cd76 d2bc
00000040: 2d73 b3bc ee65 82bd 14cb 6b3d 8bf8 1dbd
00000050: abc1 c13d 4ad4 74bd 65fc bbbd 36b2 b5bd
00000060: 993b 5cbd 5635 4fbd 52e1 3f3c f944 583c
00000070: e7b3 39bd d0ce 193e 0d84 9fbd 34de 71bd
00000080: 17c7 d2bb 9941 abbd 3295 2d3d e3c8 8ebd
00000090: 3939 913d 4d92 52be 469a 443c 9b6a 13be
000000a0: 62e7 7b3d 8df7 693c 6c82 c63d ec43 d0bc
000000b0: 991f dd3c 00e0 b7bd 8891 02bc 4a11 b83d
000000c0: ad33 e33d 9baa 1f3d 7a51 3fbd 8844 f73c
000000d0: 4409 183d 9447 16bd 98a6 dc3d d81a ff3d
000000e0: ad71 afbc 9dab 86bd 5006 453c db8a 57bd
000000f0: 07c8 373d cf1f 6ebd 3d8f ae3d 0142 a53c
00000100: c725 c1bd dbef 333d 9459 2d3c 25e9 8bbc
00000110: d5a2 99bc 2274 a7bd fcc7 30be 5ec4 babc
00000120: 4bf8 f8bb 169f 20bc b074 073c adb5 de3d
00000130: b97f c03d 4ed8 743c 63d2 363c 6014 54bd
00000140: ae8b 51bd 5fb9 95bc 774a 5fbc 367e 5bbd

fc2.weight f4 [10, 84]
-0.24161205 -0.21787842 -0.40078 -0.3980908 -0.10653217 0.05117239 -0.13608202 0.23361221
-0.2344425 0.29186282 0.37809357 -0.15361914 0.31913885 0.17965837 -0.30823302 -0.18674152
-0.14863448 0.27146536 -0.43432125 0.1339597 -0.2937462 0.1443369 0.093530566 -0.05589706
-0.17888759 -0.32613817 -0.269813 0.14986259 -0.42159453 0.18490009 0.26807475 0.29813227
0.34080315 -0.09878082 -0.03762551 0.15500006 -0.19502565 -0.11374521 -0.054455493 -0.01731349
-0.089457735 0.22802639 -0.27280805 -0.19478117 0.32595816 -0.03998327 0.3208023 -0.33000344
-0.15851304 -0.058782768 -0.23887262 0.33016756 -0.39035848 -0.17834681 0.28900105 -0.37114823
0.18513195 -0.077523515 0.122112736 -0.012123903 -0.24083675 -0.21733087 -0.25819185 -0.02286644
0.3260282 0.13796364 -0.050779577 0.1739001 0.066112675 -0.19222277 0.22325629 0.38083723
-0.17975599 -0.11502942 0.07891033 0.09059285 0.2205655 -0.019340195 -0.18547703 0.1562919
0.35782188 -0.38349453 -0.37941355 -0.38733232 -0.011329729 0.15925394 -0.06575986 0.048652582
0.30194822 -0.26620328 0.251785 0.18278526 -0.17039761 0.19695552 0.39155516 0.2920922
-0.39918685 -0.30934715 -0.34632826 -0.11902316 0.2503658 -0.2060349 -0.13983057 0.052398562
0.28680366 0.24681006 -0.3286401 0.10036215 0.18027228 -0.15795414 -0.2551183 0.2288164
0.22260585 -0.024479462 0.1320254 -0.24440739 -0.22401285 0.22249874 0.31908244 -0.34161344
0.14165427 -0.1022632 0.37397438 -0.29449156 0.1936329 -0.19762516 0.14906313 0.23685965
0.29157817 -0.18393128 -0.32525975 -0.0971019 -0.427421 -0.061338816 0.12659074 0.19634798
-0.29377317 0.027054938 -0.15434602 0.099084325 -0.2567549 -0.30456498 -0.08677333 0.3118033
-0.3634545 0.33949897 0.25146002 0.323255 -0.22610915 0.08624059 0.3786745 -0.18699244
0.19553904 0.37902388 -0.18777457 -0.2374371 0.23676641 0.2558444 -0.18794772 -0.24544653
-0.26911846 -0.35598758 0.40092748 0.07213081 -0.10368467 0.10226611 -0.061031654 0.2218108
0.28355306 0.16400683 0.24829306 -0.4008603 -0.13570774 0.16122481 0.32675737 -0.22395502
0.017692607 0.26438618 0.0007202883 0.0185724 0.26684305 -0.3986009 0.24667531 0.40563327
0.3675097 -0.29682788 -0.2618058 -0.30424845 -0.26055005 -0.41724214 -0.2192926 0.25081486
0.36480847 -0.42755294 -0.14160013 0.1812668 0.14448507 -0.16808333 -0.22642596 -0.28443852
-0.06853649 0.11511226 -0.16488954 -0.2611291 -0.020236235 0.021413295 -0.08646015 0.31720337
0.41887957 -0.072888106 0.3245166 -0.16773348 0.2000767 0.18862444 -0.017772442 0.24038991
0.14040834 0.32936275 -0.24809396 0.2983224 -0.21462867 0.2876277 0.239009 0.21779908
0.22896355 0.08158168 -0.22463106 -0.25997883 0.35878572 -0.03376795 -0.27113867 -0.18459511
-0.026913162 0.25420737 -0.24714416 -0.26550835 -0.2590989 0.13657703 -0.38691273 0.23781319
-0.06778926 -0.115057364 -0.2559564 -0.12959646 0.24036773 0.4024656 -0.067607425 -0.21524946
0.21385127 -0.48493236 -0.31600785 -0.54239565 0.31176174 -0.28932884 0.18881364 -0.20144963
00000000: 2669 77be 851b 5fbe 0933 cdbe 8fd2 cbbe
00000010: 8a2d dabd 249a 513d 1659 0bbe 0a38 6f3e
00000020: b211 70be 0b6f 953e 7b95 c13e 564e 1dbe
00000030: 2b66 a33e 5df8 373e b8d0 9dbe 2b39 3fbe
00000040: a333 18be 82fd 8a3e 5b5f debe bb2c 093e
00000050: e765 96be 0dcd 133e f48c bf3d 51f4 64bd
00000060: 4f2e 37be 95fb a6be ee24 8abe 9475 193e
00000070: 3ddb d7be 7356 3d3e 1841 893e cba4 983e
00000080: c07d ae3e 994d cabd 351d 1abd 56b8 1e3e
00000090: ceb4 47be 40f3 e8bd b90c 5fbd 05d5 8dbc
000000a0: 9e35 b7bd c07f 693e 7fad 8bbe b774 47be
000000b0: fde3 a63e 7fc5 23bd 3340 a43e 36f6 a8be
000000c0: 3e51 22be 33c6 70bd 069b 74be b90b a93e
000000d0: 11dd c7be 8ca0 36be f2f7 933e 2407 bebe
000000e0: 3b93 3d3e a6c4 9ebd 3e16 fa3d 56a3 46bc
000000f0: e99d 76be fc8b 5ebe b931 84be 6652 bbbc
00000100: 2bed a63e 5746 0d3e 3ffe 4fbd de12 323e
00000110: 1566 873d 0cd6 44be 4c9d 643e 19fd c23e
00000120: f411 38be 8b94 ebbd bd9b a13d bf88 b93d
00000130: ecdb 613e 546f 9ebc b1ed 3dbe fc0a 203e
00000140: 6e34 b73e 6559 c4be 7e42 c2be 6c50 c6be
00000150: 54a0 39bc 7713 233e 1bad 86bd ee47 473d
00000160: f598 9a3e cc4b 88be f7e9 803e 0f2c 3b3e
00000170: b67c 2ebe b5ae 493e eb79 c83e 1c8d 953e
00000180: 3862 ccbe c062 9ebe f051 b1be 6ac2 f3bd
00000190: f22f 803e d0fa 52be bf2f 0fbe e09f 563d
000001a0: eed7 923e c7bb 7c3e 8443 a8be ac8a cd3d
000001b0: 4c99 383e bbbe 21be de9e 82be d94e 6a3e
000001c0: caf2 633e 2789 c8bc ab31 073e ee45 7abe
000001d0: a063 65be b6d6 633e c65e a33e f5e7 aebe
000001e0: d10d 113e 5e6f d1bd 9279 bf3e 99c7 96be
000001f0: b447 463e 405e 4abe 01a4 183e 568b 723e
00000200: bc49 953e 7b58 3cbe 7288 a6be 5cdd c6bd
00000210: edd6 dabe 693e 7bbd 01a1 013e 720f 493e
00000220: 7069 96be 51a2 dd3c e20c 1ebe b9ec ca3d
00000230: 6175 83be f1ef 9bbe 37b6 b1bd afa4 9f3e
00000240: b516 babe cfd2 ad3e 5ebf 803e ae81 a53e
00000250: 2889 67be e89e b03d a0e1 c13e f27a 3fbe
00000260: 633b 483e 6b0f c23e fa47 40be b622 73be
00000270: e572 723e 0afe 823e 5e75 40be 5656 7bbe
00000280: e5c9 89be 0144 b6be 5e46 cd3e 51b9 933d
00000290: a158 d4bd e570 d13d 54fc 79bd 5f22 633e
000002a0: de2d 913e 68f1 273e 8940 7e3e 903d cdbe
000002b0: f8f6 0abe 1e18 253e be4c a73e 7754 65be
000002c0: 16f0 903c a05d 873e bbd1 3c3a 2525 983c
000002d0: a79f 883e 6b15 ccbe 7498 7c3e 2aaf cf3e
000002e0: 3b2a bc3e d3f9 97be 690b 86be 74c6 9bbe
000002f0: d166 85be c3a0 d5be 3d8e 60be ce6a 803e
00000300: 2dc8 ba3e 38e8 dabe a0ff 10be 019e 393e
00000310: e5f3 133e 091e 2cbe 35dc 67be eda1 91be
00000320: dc5c 8cbd fabf eb3d ced8 28be b7b2 85be
00000330: 76c6 a5bc ef6a af3c 0512 b1bd 7b68 a23e
00000340: 6277 d63e 5c46 95bd 0a27 a63e 53c2 2bbe
00000350: e8e0 4c3e c426 413e 8397 91bc c628 763e
00000360: 34c7 0f3e 3ca2 a83e 580c 7ebe b7bd 983e
00000370: 9ec7 5bbe f043 933e c6be 743e b906 5f3e
00000380: 6c75 6a3e 4c14 a73d af05 66be f21b 85be
00000390: c3b2 b73e 4350 0abd b0d2 8abe 8006 3dbe
000003a0: fe78 dcbc 7827 823e 5c13 7dbe b6f0 87be
000003b0: 9ca8 84be d9da 0b3e 6d19 c6be 4d85 733e
000003c0: 18d5 8abd 32a3 ebbd b80c 83be efb4 04be
000003d0: f522 763e f90f ce3e c375 8abd 5b6a 5cbe
000003e0: d4fb 5a3e 0e49 f8be c8cb a1be 71da 0abf
000003f0: 3c9f 9f3e e922 94be 5d58 413e d048 4ebe

fc2.bias f4 [10]
0.0061477395 -0.009565268 0.14017032 -0.08242642 -0.026952667 0.0869023 -0.07633055 -0.035297263
-0.035012104 -0.025765859
00000000: fa72 c93b a4b7 1cbc cf88 0f3e 2fcf a8bd
00000010: d7cb dcbc d5f9 b13d 3153 9cbd dd93 10bd
00000020: da68 0fbd ec12 d3bc
